Hey_Lucy.tflite (tflite, 206976 bytes, 9 tensors)

arith.constant f4 [1, 32]
000000 38 c5 04 3e 27 63 0e bc 0d 70 ce be 26 7a 95 3c
       0.12965858 -0.008690632 -0.40319863 0.018246721
000010 a8 c3 0a 3e 0b b7 14 3e b1 06 0d 3d a0 6b f5 3c
       0.135512 0.1452295 0.03443021 0.029958546
000020 6d 0c ea 3d dc 62 c3 be da 3b ce be 2f c9 c5 3d
       0.11428151 -0.3816136 -0.40280038 0.09657513
000030 15 22 c5 3c 8a 90 36 3e 51 f6 05 3c ad ae a2 3b
       0.024064103 0.17828575 0.008176402 0.0049646706
000040 71 f3 40 3e 7d 95 d8 be f5 1f 98 3d 06 bf 9c 3d
       0.18842866 -0.4230155 0.0742797 0.07653622
000050 87 15 44 3d 4e f0 eb 3c 33 94 32 3d d3 bf d4 3d
       0.047872093 0.02880111 0.043598365 0.1038815
000060 e6 b7 90 be 4c cb bc bd a8 75 92 3d 59 24 07 3e
       -0.28265303 -0.09218463 0.071513474 0.1319746
000070 fa 9c de be 1e 8a 8e 3c 36 a1 ba 3d 22 4f 31 3d
       -0.4347914 0.017399844 0.0911278 0.043288358

arith.constant1 f4 [32, 32]
000000 1f 1f b8 bd 68 85 8c 3d 48 b9 d7 bd 7a cc 69 3d
       -0.08990311 0.06861383 -0.105333865 0.05707977
000010 12 bf 2e 3e 56 86 21 be 59 c1 5b bc e6 42 62 3d
       0.17065075 -0.15773901 -0.013412797 0.05523958
000020 b4 eb b2 bd 99 dc 75 3c 68 08 1a 3d 6b 5d 45 3d
       -0.08736363 0.015006208 0.037605673 0.048184793
000030 78 bc e5 3d b8 a4 33 3e 0d 31 24 3e 35 87 23 be
       0.11217588 0.17543304 0.16034336 -0.15969546
000040 c6 17 01 be 38 04 d6 3d 5e 03 18 bd 9b d4 bd bc
       -0.12606725 0.104500234 -0.037112586 -0.023172667
000050 e8 ce 5c bc 09 3d 00 bd 49 31 ad 3d 22 2e 94 bd
       -0.013477065 -0.031308208 0.08456666 -0.07235362
000060 a6 45 fb 3d 49 e3 32 be 2d 2c cc 3b 3b 52 0a 3e
       0.12269144 -0.17469515 0.006230852 0.13507931
000070 25 9f 28 be 4b f7 e1 bd c0 00 de 3c bd f6 e7 3d
       -0.16466959 -0.110334955 0.027099967 0.113263585
000080 54 e9 93 3d a1 d4 8a bd 58 53 4d bd 0e a7 38 bd
       0.07222238 -0.06778837 -0.05012831 -0.04508119
000090 e5 dc 88 bc ed 2d 57 3d a2 80 d7 bc 7a 54 23 be
       -0.016706893 0.052534033 -0.026306454 -0.15950194
0000a0 c8 db 98 3d 33 3b 57 3d 1c f8 ec 3d a8 01 0f 3e
       0.07463795 0.05254669 0.115707606 0.13965476
0000b0 3e b0 9e bd 01 02 f0 bc 51 64 be 3d 7f 11 2d be
       -0.07748459 -0.02929783 0.092964776 -0.16901205
0000c0 c3 de 9a bd ea 35 95 3d 0f c6 8a bd ec a7 01 bd
       -0.0756202 0.07285674 -0.06776058 -0.031654283
0000d0 b5 5a 6d 3c 7b df 06 bd 9a f1 11 be d5 8c bc bd
       0.014486958 -0.03292797 -0.1425232 -0.09206549
0000e0 d0 3f 3a bc 05 a8 aa bd ed 3b 12 3d 58 7d fe 3c
       -0.011367753 -0.083328284 0.03570168 0.031065628
0000f0 33 d6 54 bb 87 04 22 3e f7 78 b7 3d 66 76 d4 3d
       -0.0032476305 0.1582204 0.08958619 0.10374145
000100 ab 98 7a 3d 9b 80 94 3d 33 87 1f 3e 0b 70 5a 3d
       0.06118075 0.07251092 0.15578918 0.05332951
000110 21 c9 82 3d b2 d7 02 3e a6 f5 11 be e1 5f 30 bd
       0.063860185 0.12777594 -0.14253864 -0.043060187
000120 d8 c1 0f bc 2c ed c3 3d f7 0c e4 3d 73 b8 0f 3e
       -0.008774243 0.09566721 0.11135285 0.14035206
000130 92 63 82 bb 9d fb 4b 3c a8 a0 b3 bd 7f ef 8f 3d
       -0.003979155 0.012450126 -0.08770877 0.07028102
000140 23 b8 19 3e 30 60 21 3c a7 0a d5 3b 89 8a 67 3d
       0.15011649 0.009849593 0.006501514 0.0565286
000150 6e 2e aa bd 54 d4 fe 3b b9 dc 26 3d ad ff d0 bd
       -0.08309637 0.0077767763 0.04073784 -0.10205016
000160 28 69 10 3e f9 5a 31 3e 30 fc 3e bc cd f8 04 bc
       0.14102614 0.1731986 -0.011656806 -0.008115959
000170 82 d6 08 3e 08 a6 75 bc 0c dd ba 3d 07 36 17 bd
       0.13363078 -0.014993198 0.091241926 -0.03691676
000180 82 73 99 3c a3 75 a5 3d a3 d2 a8 3c bd 41 25 3e
       0.018731836 0.08079078 0.020608252 0.16138358
000190 14 86 34 bc 20 87 e3 bd f1 3c 82 3d 76 f3 f9 3b
       -0.011018295 -0.111097574 0.0635928 0.0076278998
0001a0 65 de 2f be fa 82 82 3c 03 91 f8 bc cd 70 ca 3d
       -0.1717468 0.015931595 -0.030342584 0.09884796
0001b0 35 b0 0c be ab f8 30 3e d3 92 0e 3e 6b f9 65 3d
       -0.13739093 0.1728236 0.13923196 0.056146067
0001c0 e8 eb 1d be 5d 30 28 be 57 39 35 be 66 fa c2 3d
       -0.15422022 -0.16424699 -0.17697655 0.09520416
0001d0 3a fe 06 3e df 28 b7 ba 72 71 91 bd 6b 24 c7 3d
       0.13182917 -0.0013973973 -0.07101716 0.09723743
0001e0 62 80 43 be 8b 2c c3 3d 69 01 fd 3d 80 c7 1d bd
       -0.19091943 0.0952998 0.123537846 -0.038520336
0001f0 09 3f 1f 3e 8e da 7f 3d 61 cf a9 3d ed 13 2f 3c
       0.1555139 0.06246429 0.082915075 0.010685903
000200 2d ab 36 3e a8 a5 14 be f4 c6 08 bd 6a bf 6d 3d
       0.17838736 -0.14516318 -0.03339286 0.058043875
000210 bb fa 14 3e 5d d4 15 be 05 c3 43 3e dd 8a ea 3d
       0.14548771 -0.14631791 0.19117363 0.11452267
000220 40 0a a7 3d 18 96 c7 3b e9 f4 c9 bd 69 d9 04 3e
       0.08156252 0.0060908906 -0.09861166 0.1297356
000230 7b 45 0d bd f3 90 e1 3d 94 9e a0 bc 33 e0 49 3d
       -0.03449009 0.11013975 -0.019606866 0.04928608
000240 ab 4f a8 3d 38 47 20 be 1b 16 11 3b 58 3b 28 bb
       0.082183205 -0.15652168 0.002213842 -0.0025670137
000250 d5 5f 56 bd ee c8 59 3d ed 8a fa 3d 4f e6 f2 bd
       -0.052337486 0.053170137 0.12233529 -0.11860334
000260 1d b0 9f 3d fa e2 5b 3d b3 26 a2 bd d8 c5 05 3e
       0.07797263 0.05368326 -0.079175375 0.13063753
000270 c6 22 5b bc 98 3b b6 bd 47 96 ec bd a3 a6 ce 3d
       -0.01337499 -0.08898085 -0.11552101 0.10090377
000280 b2 0b 43 3d 38 ab d7 bb 0b bc a0 bd 78 4f 07 bd
       0.047618575 -0.00658169 -0.07848366 -0.03303477
000290 51 eb 66 3e 67 be 94 bb 34 cf 5a 3e b5 2b d0 3d
       0.22550704 -0.0045392993 0.21368104 0.101645865
0002a0 33 d5 96 bb 91 87 db bd e4 37 1d be 5b e0 ac bd
       -0.004603052 -0.107192166 -0.15353352 -0.0844123
0002b0 75 23 dc 3d df 3a 9d 3c c5 46 42 3e 7a 64 58 bd
       0.107489504 0.019193111 0.18972309 -0.052830197
0002c0 3d 1b a1 3c a4 3b 8e bd f3 6e f6 bc 23 eb 9c 3d
       0.019666309 -0.06944969 -0.030082202 0.07662036
0002d0 96 ac b7 bd 7e 24 20 3e 55 c1 4a 3e e0 fa 31 3e
       -0.08968465 0.1563892 0.19800313 0.17380857
0002e0 01 c0 8c bc 6a a0 e5 bc 0c a5 ae bd 16 48 3e 3d
       -0.017181398 -0.028030593 -0.08527574 0.046455465
0002f0 a0 b3 e5 3d c6 a0 71 bd 2c 42 f8 bd 82 1c c0 3d
       0.112159014 -0.058991216 -0.12121996 0.093804374
000300 0f 6d 62 3e 17 60 ea bd f4 30 fc 3c 37 43 90 3d
       0.22111915 -0.11444109 0.030785061 0.0704407
000310 0f 11 aa 3d 2a bd a2 3b 6a 34 85 3d 25 97 a9 bd
       0.08304035 0.004966398 0.06504138 -0.08280782
000320 01 23 d9 bc 62 d2 0a be 22 df a1 bb 27 16 b5 3d
       -0.026505949 -0.13556817 -0.0049399296 0.08842116
000330 c0 c9 ed 3c 03 e3 ae 3d 16 01 76 bc 3a a4 a2 3d
       0.029026866 0.08539393 -0.015014907 0.0794148
000340 a4 20 2e be cc d8 3b 3d 61 9e d1 3d 70 73 e5 3c
       -0.17004639 0.04586105 0.102352865 0.028009146
000350 44 cd ff 3d 46 ed fe 3d f5 6c f3 bd a6 0d 29 be
       0.12490323 0.124476 -0.11886016 -0.16509113
000360 7f e1 e2 3d db c8 95 3c 84 7f 13 3e ff 1c c9 bd
       0.11078166 0.018284252 0.14404112 -0.09819984
000370 2d 43 89 3d e8 f1 70 3d 30 30 f3 3d 79 91 03 be
       0.06702266 0.05882445 0.118744254 -0.12848462
000380 d6 51 16 3e da 96 96 3d b6 e6 e4 bd 4c 04 2b 3d
       0.14679655 0.073529914 -0.11176817 0.041752145
000390 46 40 f3 3d 90 95 40 be b8 64 da 3c 06 ed 87 bd
       0.118774936 -0.18807054 0.026659355 -0.066370055
0003a0 6d 79 d3 3d 90 d1 59 3d 90 44 56 bd 6b 73 0e 3e
       0.103258945 0.05317837 -0.05231148 0.13911216
0003b0 d1 5d 19 be 6e 92 e1 bd dd a3 83 3d 01 ed f7 3c
       -0.14977194 -0.11014257 0.06427739 0.03026438
0003c0 c3 7d ab 3c 45 c8 a2 bc e7 c2 6d 3c cf 6a 80 3d
       0.020933991 -0.019870887 0.0145118 0.06270372
0003d0 f7 28 fb bb 45 3e b0 bd da 67 0b bd f1 80 86 3c
       -0.0076647955 -0.08605627 -0.034034587 0.016418906
0003e0 0c 83 a4 bd e0 f9 cb bd be f1 3c bd b3 3d f9 bd
       -0.08032808 -0.09959769 -0.04612898 -0.12169971
0003f0 f3 9f d6 3d 51 5a d7 3d 62 e8 a1 3d 11 bf c6 3d
       0.10479727 0.10515273 0.07905652 0.09704412

arith.constant2 f4 [32, 1536]
000000 6e ae 26 bd 8e 19 48 3c 05 15 8a 3c aa 5e 13 bd
       -0.040693693 0.012213124 0.016855726 -0.03597895
000010 6e 27 25 3c 2c ae e9 bb da 8d 8c 3a af 64 93 3c
       0.010080202 -0.0071313586 0.0010723427 0.017992346
000020 fe 2a f4 bb 19 15 08 3c be d5 9d 3c d2 58 47 bb
       -0.007451414 0.008305811 0.01926696 -0.0030417931
000030 36 ce c0 3b 9a 84 11 bd 17 28 e7 3c 9b 67 13 3c
       0.0058839573 -0.03552685 0.028217359 0.008996869
000040 cd 58 8e ba c0 26 e3 3b 3d 5f 03 3c a9 57 c9 3c
       -0.0010860205 0.0069321096 0.008018312 0.024577932
000050 42 0a b1 bb 66 87 82 bc d7 3d 8b bb aa e6 dd bc
       -0.005402834 -0.015933704 -0.0042493152 -0.027087528
000060 96 ea 39 3c 44 5f 94 3c 99 cc bd bb 1d aa 96 3b
       0.011347434 0.018111832 -0.005792212 0.004597916
000070 18 05 ee 3c 47 c3 6f bc 44 fc 04 3b 2e 56 a6 3c
       0.029055163 -0.01463396 0.0020291964 0.020304766
000080 0d 06 69 3c 10 ca 8d bc 46 4b a1 bc f7 e8 a2 3b
       0.014222634 -0.017308265 -0.019689213 0.004971619
000090 33 4b ef 3b 61 3d 55 3c 8a fa 50 bc 05 19 86 3c
       0.0073026656 0.013015122 -0.012755046 0.016369352
0000a0 90 d1 a8 bc 8f 8d 37 bd 82 35 b7 bb 10 8b 53 38
       -0.02060774 -0.044812735 -0.0055910954 5.0435832e-05
0000b0 13 83 9a 3b 37 4f b2 3c 7f c5 c6 3b 8f 0c c1 bb
       0.0047153323 0.021766288 0.006066024 -0.0058913897
0000c0 3c 0e d3 3c 62 2e 6d ba 0d 69 99 bc a3 45 de bb
       0.025763623 -0.0009047744 -0.01872685 -0.0067832037
0000d0 2f 44 8c bb 8f 4f 31 3d fb 43 e1 3b 70 57 c2 bc
       -0.004280589 0.043288764 0.006874559 -0.023723334
0000e0 24 cc e8 bc 7f 2a 7e bc 6e 99 85 3c 16 8d d1 bc
       -0.028417654 -0.015513062 0.016308513 -0.02557997
0000f0 0a 2d 53 3b c2 3e 12 bc 3d 2b 01 3c 5f 71 a9 bb
       0.003222289 -0.008926095 0.007883844 -0.0051709856
000100 14 98 67 bb ed 3f 6d bc 95 21 7d 3b 10 bb 83 bc
       -0.0035338448 -0.014480573 0.0038624753 -0.01608041
000110 98 a5 ba 3b 0f ae 2f bb ac b3 de bc 79 e7 3a 3c
       0.00569601 -0.0026806628 -0.027185284 0.011407726
000120 89 ca f4 bb 90 7b e8 3c 73 a0 8f bc ac b9 8d 3c
       -0.007470433 0.028379232 -0.017532563 0.01730045
000130 43 83 34 3d bc e0 b2 3c 38 fb 76 bc 38 0d b0 3c
       0.044070493 0.021835677 -0.015074544 0.021490678
000140 4f 8b db 3c aa 1b e8 bc 62 4a e5 bb cb a9 12 3c
       0.026799826 -0.028333504 -0.0069973925 0.008951615
000150 f1 5d a4 bc 0a 72 35 bc 75 53 26 bc e5 fe ad bc
       -0.020064326 -0.011074552 -0.010151734 -0.021239707
000160 89 e3 04 3d 14 bf 69 bc b1 7e 16 bc fc 73 91 bb
       0.032443557 -0.014266748 -0.009185479 -0.0044388752
000170 ea ca c8 3c 37 40 89 3c 32 89 e6 bb 81 61 e7 bb
       0.02451082 0.016754253 -0.007035398 -0.007061184
000180 e4 4e 64 bb 11 c9 9d 3c c8 81 07 3c 7f 3b f2 bc
       -0.0034837062 0.019260915 0.008270688 -0.029569386
000190 1c 01 45 3c 90 d4 a6 bc 64 27 8c 3b d1 ff f3 bb
       0.01202419 -0.02036503 0.0042771567 -0.007446267
0001a0 35 24 ee bc 6e 69 57 bb 91 b7 82 bc 6c a8 48 bc
       -0.02907 -0.0032869237 -0.015956672 -0.012247186
0001b0 9a 89 1d 3c 57 80 5b 3c 9d c8 81 bc e3 1d 65 bc
       0.009615326 0.013397298 -0.01584273 -0.013984176
0001c0 1e ed 89 bc 2e de 25 3c 47 68 4a 37 f2 2d 90 3c
       -0.0168367 0.010123773 1.2064417e-05 0.017600033
0001d0 09 aa 74 bc b3 a0 cb 3a d5 64 c6 bc 92 a4 91 bc
       -0.014933118 0.0015535563 -0.024218002 -0.017778669
0001e0 65 46 ed bc d3 ce 0f 3d 56 c0 83 bc 14 ff 8a bc
       -0.02896423 0.035109352 -0.016082924 -0.016967334
0001f0 a7 5f a3 3c 1d 08 2e 3a fa 34 e0 3b 78 5f 83 3c
       0.019943072 0.0006638782 0.006842253 0.016036734
000200 7e 3d c2 3c 4d e8 78 bc 2f 78 e7 bc 73 ee aa 3c
       0.023710962 -0.015192104 -0.02825555 0.020865655
000210 be 3f cd bb 3e da 95 3c 50 35 08 3c 33 aa 5a bb
       -0.006263702 0.018292543 0.008313492 -0.0033365607
000220 4d 0a 24 3c 02 57 16 3c d8 fc 15 bc 46 9f 10 bb
       0.0100122215 0.009176018 -0.009154521 -0.002206759
000230 da 43 5e bc 76 1b c9 3c 42 a2 95 3c ac 0f 81 3c
       -0.013565982 0.024549227 0.018265847 0.015754543
000240 da 9e e9 bb b1 45 50 3c 5b 33 5b bb 69 04 b4 bc
       -0.0071295323 0.012711928 -0.0033447358 -0.02197476
000250 f9 bb ae bc bd ce 4b 3c 7e be 0c bd e6 c3 b6 3c
       -0.021329867 0.012439427 -0.034361355 0.022310209
000260 b5 74 79 3b 4c f8 ae 3b a6 9f 8d 3c 1c 25 cb bb
       0.0038063948 0.005339658 0.01728804 -0.006199492
000270 c7 03 c5 3b 7c fc a8 ba f2 93 76 3c 3e fb d9 bc
       0.006012413 -0.0012892629 0.015049921 -0.02660906
000280 75 b8 7a bc b1 cc 2b 3c c2 1b 4d 3a cf b6 7e 3c
       -0.015302767 0.010485814 0.00078242656 0.015546515
000290 bd 54 31 3c 67 f0 39 bc 7b a7 d6 bb d5 45 b7 3b
       0.010823426 -0.01134882 -0.006550727 0.0055930414
0002a0 a3 9e ac bb 3b 13 09 ba 8c 6f 94 bb 89 bd d2 3c
       -0.0052679344 -0.0005229001 -0.004529899 0.025725143
0002b0 04 e6 82 3c 6d 42 ac 3c 3c 5a 63 bc 46 2f 73 3c
       0.01597882 0.021027768 -0.013876494 0.014842814
0002c0 08 db eb ba dc d7 7d bc 5e e7 44 bc 43 bd 81 3c
       -0.0017994354 -0.015493359 -0.012018053 0.015837317
0002d0 f9 51 b5 3c 90 05 ee bc c5 70 64 3c 71 bc 01 bd
       0.022133814 -0.029055387 0.013942902 -0.031673852
0002e0 2b c6 16 3d 9b ec ac bc 9f ab 31 3d ea b4 73 3c
       0.03681008 -0.021108916 0.04337656 0.014874676
0002f0 92 c6 43 bc 64 40 5c 3b ae 18 ba bc 1b 5e d3 3c
       -0.011949198 0.0033607716 -0.022716846 0.025801709
000300 93 a3 91 3b fb 20 39 bc 71 b2 34 3c 2e 6c 09 bd
       0.0044445484 -0.011299367 0.011028872 -0.033550434
000310 29 b5 eb 3b 4f 07 7b bc 33 a4 a7 3c 68 b1 72 bb
       0.007193227 -0.015321567 0.020464038 -0.0037032012
000320 15 fa be bc 35 73 9d 3c 26 9f e9 3c f2 34 9b bc
       -0.023312608 0.019219974 0.02851827 -0.018946145
000330 e8 fc 79 bb fb 53 c8 3b fd a3 8b bc b2 8e c7 bb
       -0.0038145129 0.006113527 -0.01704597 -0.0060900087
000340 b0 75 83 3b 91 74 96 3c 4f 63 30 3c b4 12 dd 3a
       0.004011832 0.01836613 0.0107658645 0.0016866536
000350 19 ab d2 3b 53 e9 fc bb f1 e6 19 bc 0a 6b 37 bd
       0.006429088 -0.007718244 -0.00939344 -0.044779815
000360 4f 5f d3 bc d6 3f 01 3d 5f 97 b0 bc 07 37 b7 bb
       -0.025802283 0.03155502 -0.021556554 -0.0055912766
000370 82 73 89 3c f1 c4 45 bb 4e e1 3c 3c 71 22 c5 bb
       0.016778711 -0.00301772 0.011528326 -0.0060160686
000380 d2 ec cc 3c 85 a6 d9 3b f4 e1 7e 3c 61 ac 21 bc
       0.025015268 0.006642165 0.015556801 -0.0098677585
000390 1e c4 16 3c 8b a0 a1 bc c4 35 36 bc 92 3b 83 bb
       0.009202031 -0.019729873 -0.011121217 -0.004004904
0003a0 a3 d7 3d bc 39 fd db 39 e9 90 6e bb 12 81 47 3b
       -0.011587056 0.000419596 -0.003640229 0.0030441922
0003b0 5a eb dd bc 5a 72 7f bc 51 b1 a6 3b 37 0b aa 3c
       -0.027089763 -0.015591228 0.0050870557 0.0207573
0003c0 15 d7 7d bb 94 20 a0 bc 3d aa dc 3c eb 55 39 ba
       -0.0038732935 -0.019546784 0.026936645 -0.0007069993
0003d0 27 41 15 3c d3 20 04 3d 0e 5d 28 bc eb 79 05 3b
       0.009109772 0.032257866 -0.010276092 0.0020366858
0003e0 d3 69 63 bb 53 08 45 3c 16 b6 84 3c 33 97 8f 3c
       -0.0034700527 0.01202591 0.016200107 0.017528152
0003f0 57 9b 8a 39 65 e3 de 3b 41 0e bf 3c 36 90 9f ba
       0.00026437148 0.00680201 0.023322226 -0.0012173716

model_8/tf.__operators__.add/AddV2/y f4 [32]
000000 79 59 68 bc 51 e0 70 3c b8 d5 a1 bc 57 b5 9e 3c
       -0.014181488 0.014701919 -0.01975523 0.019373579
000010 95 28 7a 3c 98 ff a8 3c 40 44 ba 3a ab 9c 07 3b
       0.015268465 0.02062969 0.0014211014 0.0020692747
000020 ec a9 ac 3b 73 a1 b5 3c 99 19 8a 3b 7e 89 de bb
       0.0052692797 0.022171712 0.0042144773 -0.0067912927
000030 6e 2e 95 b9 c7 fa b0 3c d3 e9 0f bb f0 ff c4 bb
       -0.00028454087 0.021603955 -0.0021959438 -0.0060119554
000040 37 1b 84 bc 30 b2 2f bc 20 a4 e2 3a 24 0f 84 bc
       -0.016126258 -0.010723636 0.0017291345 -0.0161205
000050 52 c0 ba bc 93 c8 27 3c b8 2c c8 bc 66 48 d5 bb
       -0.022796784 0.010240692 -0.024435386 -0.0065088747
000060 39 d0 29 bc fd de 98 bc 9d 5e 01 bc 77 bf f5 3b
       -0.010364586 -0.018661017 -0.007896093 0.007499631
000070 5b e3 91 bc 68 b0 8d bc 49 3c 9a 3c e8 05 86 3c
       -0.017808607 -0.017296031 0.018827574 0.016360238

model_8/tf.__operators__.add_1/AddV2/y f4 [32]
000000 fa 58 9a 3d 3c 70 24 3e 67 e9 a9 3d 3a c1 18 3d
       0.07536502 0.16058439 0.08296471 0.03729365
000010 16 6b 75 3d 6f 0e 9a 3d a2 85 0b be e9 e6 96 3b
       0.05991658 0.07522284 -0.13625196 0.0046051634
000020 44 84 9b bd 8b 8b 0c 3e 28 0e 80 3c bb 5b fe 3d
       -0.07593587 0.13725106 0.01563175 0.1241984
000030 e3 6f ec 3d 00 f6 c4 3d c0 12 0a be 3f 79 e0 3c
       0.11544778 0.09617233 -0.13483715 0.027401565
000040 be 23 f6 bd ee 60 36 bc 07 ef 80 3c da de 20 3d
       -0.12018536 -0.011131508 0.015738977 0.039275028
000050 14 2d a6 bc 2d 51 ef bc da 20 13 be 7b 03 26 be
       -0.020285167 -0.029213512 -0.14368 -0.16212265
000060 5f 06 0a bd bd f2 a2 3c 7e 43 f5 38 b7 48 15 3e
       -0.033697482 0.019891137 0.00011695082 0.1457852
000070 f3 1e 56 bd 41 be 4e 3e 80 6c cf bc e5 4a 04 be
       -0.05227561 0.20189764 -0.025320292 -0.12919195

model_8/tf.math.add_2/Add/y f4 [1, 32]
000000 72 80 86 3c 6a a5 a6 3c 43 7f b8 bc 52 a5 64 3c
       0.01641867 0.020342547 -0.02252162 0.013955431
000010 6e 4c c9 3c a7 63 d8 3c 8d bd 8f 3b 1d 44 84 3c
       0.024572577 0.026414705 0.00438661 0.01614576
000020 46 ed 90 bc 64 50 8f 3c a0 6d 45 3c 73 73 d2 3b
       -0.017691266 0.017494388 0.012050062 0.006422454
000030 79 d3 62 3c 50 11 1a 3c b3 d6 a5 3c aa c2 e5 3c
       0.013844364 0.009403542 0.020243978 0.028046925
000040 e8 fc 97 3c 48 b7 a1 bc cb ab 90 3b b5 fc a4 3c
       0.018553212 -0.019740716 0.0044150106 0.020140031
000050 75 04 2b 3d 08 39 fe 3b 2d 50 e7 3c 14 70 51 3c
       0.041752297 0.0077582635 0.028236473 0.012783069
000060 02 4f c5 3c a9 c1 1b bc 50 7e fd bc ef 0c 17 3d
       0.024085525 -0.009506621 -0.03094402 0.03687757
000070 91 da a9 bc ee d8 e6 3c 35 7b be bc e6 42 4e 3c
       -0.020734103 0.028179612 -0.023252109 0.012589192

model_8/tf.math.add_5/Add/y f4 [1, 32]
000000 ef ab 22 3d 96 f5 db ba 4d 15 9b 3e 4d cd d9 3c
       0.03971475 -0.0016781564 0.3028969 0.026587153
000010 03 d5 36 3c 4f f8 23 3d 12 e5 08 bc 87 c2 05 3d
       0.011159184 0.040031727 -0.008355396 0.03265622
000020 9a 42 a6 bd d3 24 a6 3e ab c8 c2 3e 09 76 02 bc
       -0.08118172 0.3244997 0.38043723 -0.007962712
000030 09 f6 88 bd d9 6f 5a 3c a2 70 e5 bc 48 0e aa bc
       -0.066875525 0.013332331 -0.02800781 -0.020758763
000040 c9 a3 61 3c 1b 71 98 3e 3a bd 16 3d ae fb c5 bb
       0.01377196 0.29773793 0.036801554 -0.0060419654
000050 ef 08 75 bc 1e b2 d7 bc 32 96 92 bc e2 7a dd 3c
       -0.014955743 -0.02633005 -0.017893884 0.027036134
000060 19 a5 f4 3d b8 40 75 bd c8 2c 16 3d c5 ff 91 3c
       0.119455524 -0.059876174 0.0366638 0.017822156
000070 d9 38 9c 3e d1 0f 31 3b 92 bc 22 3d 27 0b c7 bb
       0.3051212 0.0027017484 0.039730616 -0.0060743275

model_8/tf.math.multiply_10/Mul/y f4 [1, 32]
000000 ef a2 82 3f 69 42 84 3f 38 cb 7a 3f cd 53 84 3f
       1.0205973 1.0332767 0.9796634 1.0338074
000010 5e ee 83 3f bb 32 82 3f d2 db 81 3f 0c 51 7e 3f
       1.0307119 1.0171732 1.0145209 0.9934242
000020 08 ba 7b 3f 7c af 75 3f 88 d8 80 3f 2a 16 82 3f
       0.98330736 0.9597089 1.006608 1.0163014
000030 2f 0e 84 3f 84 02 80 3f 88 42 80 3f f7 da 82 3f
       1.0316828 1.0000768 1.0020304 1.0223073
000040 af 19 7f 3f ff ab 7b 3f 9e 2e 7b 3f a5 04 84 3f
       0.99648565 0.9830932 0.9811801 1.0313917
000050 19 bf 84 3f 52 69 7e 3f 92 d0 82 3f 6f 58 7f 3f
       1.0370818 0.99379456 1.0219901 0.99744314
000060 35 15 7d 3f a7 86 7d 3f 47 e2 74 3f 73 3a 7a 3f
       0.98860484 0.9903359 0.9565777 0.97745436
000070 0a 9e 7b 3f 08 e3 81 3f 81 08 7d 3f 18 2b 81 3f
       0.98288023 1.014741 0.988411 1.0091276

model_8/tf.math.multiply_22/Mul/y f4 [1, 32]
000000 a5 6a 8a 3f c1 03 80 3f 85 31 a5 3f 51 a7 81 3f
       1.0813795 1.0001146 1.2905737 1.0129186
000010 0d f0 82 3f 17 36 88 3f 9c 9e 81 3f 5a 41 83 3f
       1.0229508 1.0641507 1.0126529 1.0254319
000020 f7 ea 72 3f 44 f7 ab 3f f4 64 bb 3f 72 b4 7f 3f
       0.9488978 1.3434834 1.4640183 0.9988471
000030 24 21 7b 3f 7b 8c 82 3f 2f 05 78 3f b7 00 75 3f
       0.98097444 1.0199121 0.9688291 0.95704216
000040 8a 6d 85 3f c1 67 a4 3f ff 33 88 3f a6 de 87 3f
       1.0424054 1.2844163 1.0640868 1.0614822
000050 03 99 81 3f 5a 90 7b 3f 90 7e 7e 3f 1b 2f 86 3f
       1.012482 0.9826714 0.9941187 1.0483125
000060 7e 76 98 3f 40 f5 6e 3f 05 cd 86 3f 95 b3 84 3f
       1.1911161 0.9334297 1.0531317 1.0367304
000070 40 18 a8 3f 94 68 7b 3f d7 2a 88 3f 27 b4 85 3f
       1.31324 0.9820645 1.0638074 1.0445603
