Hey_Lucy_float16.tflite (tflite, 107468 bytes, 9 tensors)

arith.constant2 f2 [1, 32]
0	0x3c53	1.081
1	0x3c00	1.0
2	0x3d2a	1.291
3	0x3c0d	1.013
4	0x3c18	1.023
5	0x3c42	1.064
6	0x3c0d	1.013
7	0x3c1a	1.025
8	0x3b97	0.9487
9	0x3d60	1.344
10	0x3ddb	1.464
11	0x3bfe	0.999
12	0x3bd9	0.981
13	0x3c14	1.02
14	0x3bc0	0.9688
15	0x3ba8	0.957
16	0x3c2b	1.042
17	0x3d23	1.284
18	0x3c42	1.064
19	0x3c3f	1.062
20	0x3c0d	1.013
21	0x3bdd	0.983
22	0x3bf4	0.994
23	0x3c31	1.048
24	0x3cc4	1.191
25	0x3b78	0.9336
26	0x3c36	1.053
27	0x3c26	1.037
28	0x3d41	1.313
29	0x3bdb	0.982
30	0x3c41	1.063
31	0x3c2e	1.045

arith.constant3 f2 [1, 32]
0	0x3c15	1.0205
1	0x3c22	1.033
2	0x3bd6	0.9795
3	0x3c23	1.034
4	0x3c1f	1.03
5	0x3c12	1.018
6	0x3c0f	1.015
7	0x3bf3	0.9937
8	0x3bde	0.9834
9	0x3bad	0.9595
10	0x3c07	1.007
11	0x3c11	1.017
12	0x3c20	1.031
13	0x3c00	1.0
14	0x3c02	1.002
15	0x3c17	1.022
16	0x3bf9	0.9966
17	0x3bdd	0.983
18	0x3bd9	0.981
19	0x3c20	1.031
20	0x3c26	1.037
21	0x3bf3	0.9937
22	0x3c17	1.022
23	0x3bfb	0.9976
24	0x3be9	0.989
25	0x3bec	0.99
26	0x3ba7	0.9565
27	0x3bd2	0.9775
28	0x3bdd	0.983
29	0x3c0f	1.015
30	0x3be8	0.9883
31	0x3c09	1.009

arith.constant4 f2 [1, 32]
0	0x2915	0.0397
1	0x96e0	-0.001678
2	0x34d9	0.303
3	0x26ce	0.02658
4	0x21b7	0.01116
5	0x2920	0.04004
6	0xa047	-0.008354
7	0x282e	0.03265
8	0xad32	-0.0812
9	0x3531	0.3245
10	0x3616	0.3804
11	0xa014	-0.007965
12	0xac48	-0.0669
13	0x22d3	0.01333
14	0xa72c	-0.02802
15	0xa550	-0.02075
16	0x230d	0.01377
17	0x34c4	0.2979
18	0x28b6	0.0368
19	0x9e30	-0.006042
20	0xa3a8	-0.01495
21	0xa6be	-0.02634
22	0xa495	-0.0179
23	0x26ec	0.02704
24	0x2fa5	0.11945
25	0xabaa	-0.05988
26	0x28b1	0.03665
27	0x2490	0.01782
28	0x34e2	0.3052
29	0x1988	0.0027
30	0x2916	0.03973
31	0x9e38	-0.006073

arith.constant5 f2 [1, 32]
0	0x2434	0.01642
1	0x2535	0.02034
2	0xa5c4	-0.02252
3	0x2325	0.013954
4	0x264a	0.02457
5	0x26c3	0.02641
6	0x1c7e	0.004387
7	0x2422	0.01614
8	0xa487	-0.01768
9	0x247b	0.0175
10	0x222b	0.01205
11	0x1e94	0.006424
12	0x2317	0.01385
13	0x20d1	0.00941
14	0x252f	0.02025
15	0x272e	0.02805
16	0x24c0	0.01855
17	0xa50e	-0.01974
18	0x1c85	0.004414
19	0x2528	0.02014
20	0x2958	0.04175
21	0x1ff2	0.00776
22	0x273b	0.02824
23	0x228c	0.01279
24	0x262a	0.02408
25	0xa0de	-0.00951
26	0xa7ec	-0.03094
27	0x28b8	0.03687
28	0xa54f	-0.02074
29	0x2737	0.02818
30	0xa5f4	-0.02325
31	0x2272	0.01259

arith.constant8 f2 [32]
0	0x2cd3	0.0754
1	0x3124	0.1606
2	0x2d4f	0.08295
3	0x28c6	0.0373
4	0x2bab	0.0599
5	0x2cd0	0.0752
6	0xb05c	-0.1362
7	0x1cb7	0.004604
8	0xacdc	-0.0759
9	0x3064	0.1372
10	0x2400	0.01563
11	0x2ff3	0.1242
12	0x2f63	0.1154
13	0x2e28	0.0962
14	0xb051	-0.1349
15	0x2704	0.0274
16	0xafb1	-0.1202
17	0xa1b3	-0.01113
18	0x2407	0.01573
19	0x2907	0.03928
20	0xa531	-0.02028
21	0xa77b	-0.02922
22	0xb099	-0.1437
23	0xb130	-0.1621
24	0xa850	-0.0337
25	0x2518	0.0199
26	0x07aa	0.00011694
27	0x30aa	0.1458
28	0xaab1	-0.05228
29	0x3276	0.2019
30	0xa67b	-0.02531
31	0xb022	-0.1292

arith.constant9 f2 [32]
0	0xa343	-0.01418
1	0x2387	0.0147
2	0xa50f	-0.01976
3	0x24f6	0.01938
4	0x23d1	0.01527
5	0x2548	0.02063
6	0x15d2	0.001421
7	0x183d	0.00207
8	0x1d65	0.00527
9	0x25ad	0.02217
10	0x1c51	0.004215
11	0x9ef4	-0.00679
12	0x8ca9	-0.0002844
13	0x2588	0.0216
14	0x987f	-0.002195
15	0x9e28	-0.006012
16	0xa421	-0.01613
17	0xa17e	-0.01073
18	0x1715	0.001729
19	0xa420	-0.01611
20	0xa5d6	-0.0228
21	0x213e	0.01024
22	0xa641	-0.02443
23	0x9eaa	-0.006508
24	0xa14f	-0.01037
25	0xa4c7	-0.01866
26	0xa00b	-0.0079
27	0x1fae	0.0075
28	0xa48f	-0.0178
29	0xa46e	-0.0173
30	0x24d2	0.01883
31	0x2430	0.01636

arith.constant10 f2 [32, 1536]
0	0xa935	-0.04068
1	0x2241	0.012215
2	0x2451	0.01686
3	0xa89b	-0.03598
4	0x2129	0.01008
5	0x9f4d	-0.00713
6	0x1464	0.001072
7	0x249b	0.01799
8	0x9fa1	-0.00745
9	0x2041	0.00831
10	0x24ef	0.01927
11	0x9a3b	-0.003042
12	0x1e06	0.005882
13	0xa88c	-0.03552
14	0x2739	0.02821
15	0x209b	0.008995
16	0x9473	-0.001086
17	0x1f19	0.00693
18	0x201b	0.00802
19	0x264b	0.02458
20	0x9d88	-0.0054
21	0xa414	-0.01593
22	0x9c5a	-0.00425
23	0xa6ef	-0.02708
24	0x21cf	0.011345
25	0x24a3	0.01811
26	0x9dee	-0.00579
27	0x1cb5	0.004597
28	0x2770	0.02905
29	0xa37e	-0.01463
30	0x1828	0.00203
31	0x2533	0.02031
32	0x2348	0.01422
33	0xa46e	-0.0173
34	0xa50a	-0.01968
35	0x1d17	0.00497
36	0x1f7a	0.0073
37	0x22aa	0.013016
38	0xa288	-0.01276
39	0x2431	0.01637
40	0xa547	-0.02061
41	0xa9bc	-0.0448
42	0x9dba	-0.005592
43	0x034e	5.04e-05
44	0x1cd4	0.004715
45	0x2592	0.02176
46	0x1e36	0.006065
47	0x9e08	-0.00589
48	0x2698	0.02576
49	0x9369	-0.0009046
50	0xa4cb	-0.01872
51	0x9ef2	-0.006783
52	0x9c62	-0.00428
53	0x298a	0.04327
54	0x1f0a	0.006874
55	0xa613	-0.02373
56	0xa746	-0.02841
57	0xa3f1	-0.01551
58	0x242d	0.01631
59	0xa68c	-0.02557
60	0x1a99	0.003222
61	0xa092	-0.00893
62	0x2009	0.00788
63	0x9d4c	-0.005173
64	0x9b3d	-0.003534
65	0xa36a	-0.01448
66	0x1be9	0.003862
67	0xa41e	-0.01608
68	0x1dd5	0.005695
69	0x997d	-0.00268
70	0xa6f6	-0.02719
71	0x21d7	0.011406
72	0x9fa6	-0.00747
73	0x2744	0.02838
74	0xa47d	-0.01753
75	0x246e	0.0173
76	0x29a4	0.04407
77	0x2597	0.02184
78	0xa3b8	-0.015076
79	0x2580	0.02148
80	0x26dc	0.0268
81	0xa741	-0.02834
82	0x9f2a	-0.006996
83	0x2095	0.00895
84	0xa523	-0.02007
85	0xa1ac	-0.01108
86	0xa133	-0.010155
87	0xa570	-0.02124
88	0x2827	0.03244
89	0xa34e	-0.01427
90	0xa0b4	-0.009186
91	0x9c8c	-0.00444
92	0x2646	0.0245
93	0x244a	0.01675
94	0x9f34	-0.007034
95	0x9f3b	-0.00706
96	0x9b22	-0.003483
97	0x24ee	0.01926
98	0x203c	0.00827
99	0xa792	-0.02957
100	0x2228	0.012024
101	0xa537	-0.02037
102	0x1c61	0.004276
103	0x9fa0	-0.007446
104	0xa771	-0.02907
105	0x9abb	-0.003286
106	0xa416	-0.01596
107	0xa245	-0.012245
108	0x20ec	0.00961
109	0x22dc	0.0134
110	0xa40e	-0.01584
111	0xa329	-0.013985
112	0xa44f	-0.01683
113	0x212f	0.010124
114	0x00ca	1.204e-05
115	0x2481	0.0176
116	0xa3a5	-0.01493
117	0x165d	0.001554
118	0xa633	-0.02422
119	0xa48d	-0.01778
120	0xa76a	-0.02896
121	0x287e	0.0351
122	0xa41e	-0.01608
123	0xa458	-0.01697
124	0x251b	0.01994
125	0x1170	0.0006638
126	0x1f02	0.006844
127	0x241b	0.01604
128	0x2612	0.02371
129	0xa3c7	-0.01519
130	0xa73c	-0.02826
131	0x2557	0.02086
132	0x9e6a	-0.006264
133	0x24af	0.0183
134	0x2042	0.008316
135	0x9ad5	-0.003336
136	0x2120	0.01001
137	0x20b3	0.00918
138	0xa0b0	-0.009155
139	0x9885	-0.002207
140	0xa2f2	-0.013565
141	0x2649	0.02455
142	0x24ad	0.01826
143	0x2408	0.01575
144	0x9f4d	-0.00713
145	0x2282	0.01271
146	0x9ada	-0.003345
147	0xa5a0	-0.02197
148	0xa576	-0.02133
149	0x225e	0.012436
150	0xa866	-0.03436
151	0x25b6	0.02231
152	0x1bcc	0.003807
153	0x1d78	0.00534
154	0x246d	0.01729
155	0x9e59	-0.0062
156	0x1e28	0.006012
157	0x9548	-0.001289
158	0x23b5	0.01505
159	0xa6d0	-0.02661
160	0xa3d6	-0.015305
161	0x215e	0.01048
162	0x1269	0.0007825
163	0x23f6	0.01555
164	0x218b	0.010826
165	0xa1d0	-0.01135
166	0x9eb5	-0.00655
167	0x1dba	0.005592
168	0x9d65	-0.00527
169	0x9049	-0.000523
170	0x9ca3	-0.004528
171	0x2696	0.02573
172	0x2417	0.01598
173	0x2562	0.02103
174	0xa31b	-0.01388
175	0x2399	0.01484
176	0x975f	-0.0018
177	0xa3ef	-0.015495
178	0xa227	-0.01202
179	0x240e	0.01584
180	0x25ab	0.02214
181	0xa770	-0.02905
182	0x2324	0.01395
183	0xa80e	-0.03168
184	0x28b6	0.0368
185	0xa567	-0.0211
186	0x298d	0.04337
187	0x239e	0.01488
188	0xa21e	-0.01195
189	0x1ae2	0.00336
190	0xa5d1	-0.02272
191	0x269b	0.0258
192	0x1c8d	0.004444
193	0xa1c9	-0.0113
194	0x21a6	0.01103
195	0xa84b	-0.03354
196	0x1f5e	0.007195
197	0xa3d8	-0.01532
198	0x253d	0.02046
199	0x9b96	-0.003704
200	0xa5f8	-0.02332
201	0x24ec	0.01923
202	0x274d	0.02852
203	0xa4da	-0.01895
204	0x9bd0	-0.003815
205	0x1e43	0.006115
206	0xa45d	-0.01704
207	0x9e3c	-0.00609
208	0x1c1c	0.004013
209	0x24b4	0.01837
210	0x2183	0.010765
211	0x16e9	0.001687
212	0x1e95	0.006428
213	0x9fe7	-0.007717
214	0xa0cf	-0.00939
215	0xa9bb	-0.04477
216	0xa69b	-0.0258
217	0x280a	0.03156
218	0xa585	-0.02156
219	0x9dba	-0.005592
220	0x244c	0.01678
221	0x9a2e	-0.003017
222	0x21e7	0.01153
223	0x9e29	-0.006016
224	0x2667	0.02501
225	0x1ecd	0.00664
226	0x23f7	0.01556
227	0xa10d	-0.009865
228	0x20b6	0.0092
229	0xa50d	-0.01973
230	0xa1b2	-0.01112
231	0x9c1a	-0.004005
232	0xa1ef	-0.01159
233	0x0ee0	0.0004196
234	0x9b75	-0.003641
235	0x1a3c	0.003044
236	0xa6ef	-0.02708
237	0xa3fc	-0.015594
238	0x1d36	0.00509
239	0x2550	0.02075
240	0x9bef	-0.003874
241	0xa501	-0.01955
242	0x26e5	0.02693
243	0x91cb	-0.000707
244	0x20aa	0.00911
245	0x2821	0.03226
246	0xa143	-0.01028
247	0x182c	0.002037
248	0x9b1b	-0.00347
249	0x2228	0.012024
250	0x2426	0.0162
251	0x247d	0.01753
252	0x0c55	0.0002644
253	0x1ef7	0.0068
254	0x25f8	0.02332
255	0x94fd	-0.001218

arith.constant11 f2 [32, 32]
0	0xadc1	-0.0899
1	0x2c64	0.0686
2	0xaebe	-0.10535
3	0x2b4e	0.05707
4	0x3176	0.1707
5	0xb10c	-0.1577
6	0xa2de	-0.01341
7	0x2b12	0.05524
8	0xad97	-0.08734
9	0x23af	0.01501
10	0x28d0	0.0376
11	0x2a2b	0.0482
12	0x2f2e	0.1122
13	0x319d	0.1754
14	0x3122	0.1604
15	0xb11c	-0.1597
16	0xb009	-0.1261
17	0x2eb0	0.1045
18	0xa8c0	-0.0371
19	0xa5ef	-0.02318
20	0xa2e6	-0.01347
21	0xa802	-0.0313
22	0x2d6a	0.0846
23	0xaca1	-0.0723
24	0x2fda	0.1227
25	0xb197	-0.1747
26	0x1e61	0.00623
27	0x3053	0.1351
28	0xb145	-0.1647
29	0xaf10	-0.11035
30	0x26f0	0.0271
31	0x2f40	0.1133
32	0x2c9f	0.0722
33	0xac57	-0.0678
34	0xaa6b	-0.05014
35	0xa9c5	-0.04507
36	0xa447	-0.01671
37	0x2ab9	0.05252
38	0xa6bc	-0.0263
39	0xb11b	-0.1595
40	0x2cc7	0.07465
41	0x2aba	0.05255
42	0x2f68	0.1157
43	0x3078	0.1396
44	0xacf6	-0.0775
45	0xa780	-0.0293
46	0x2df3	0.09296
47	0xb169	-0.1691
48	0xacd7	-0.0756
49	0x2caa	0.0729
50	0xac56	-0.06775
51	0xa80d	-0.03165
52	0x236b	0.01449
53	0xa837	-0.03293
54	0xb090	-0.1426
55	0xade4	-0.09204
56	0xa1d2	-0.01137
57	0xad55	-0.0833
58	0x2892	0.0357
59	0x27f4	0.03107
60	0x9aa7	-0.003248
61	0x3110	0.1582
62	0x2dbc	0.0896
63	0x2ea4	0.10376
64	0x2bd5	0.0612
65	0x2ca4	0.0725
66	0x30fc	0.1558
67	0x2ad4	0.05334
68	0x2c16	0.06384
69	0x3017	0.1278
70	0xb090	-0.1426
71	0xa983	-0.04306
72	0xa07e	-0.00877
73	0x2e1f	0.09564
74	0x2f20	0.1113
75	0x307e	0.1404
76	0x9c13	-0.00398
77	0x2260	0.01245
78	0xad9d	-0.0877
79	0x2c7f	0.07025
80	0x30ce	0.1501
81	0x210b	0.00985
82	0x1ea8	0.0065
83	0x2b3c	0.05652
84	0xad51	-0.08307
85	0x1ff7	0.00778
86	0x2937	0.04074
87	0xae88	-0.10205
88	0x3083	0.141
89	0x318b	0.1732
90	0xa1f8	-0.01166
91	0xa028	-0.00812
92	0x3047	0.1337
93	0xa3ad	-0.01499
94	0x2dd7	0.09125
95	0xa8ba	-0.03693
96	0x24cc	0.01874
97	0x2d2c	0.0808
98	0x2547	0.02061
99	0x312a	0.1614
100	0xa1a4	-0.01102
101	0xaf1c	-0.1111
102	0x2c12	0.0636
103	0x1fd0	0.00763
104	0xb17f	-0.1718
105	0x2414	0.01593
106	0xa7c5	-0.03035
107	0x2e54	0.0989
108	0xb066	-0.1375
109	0x3188	0.1729
110	0x3075	0.1393
111	0x2b30	0.05615
112	0xb0ef	-0.1542
113	0xb142	-0.1643
114	0xb1aa	-0.177
115	0x2e18	0.0952
116	0x3038	0.1318
117	0x95b9	-0.001397
118	0xac8c	-0.07104
119	0x2e39	0.0972
120	0xb21c	-0.1909
121	0x2e19	0.0953
122	0x2fe8	0.12354
123	0xa8ee	-0.0385
124	0x30fa	0.1555
125	0x2bff	0.06247
126	0x2d4e	0.0829
127	0x2179	0.01069
128	0x31b5	0.1783
129	0xb0a5	-0.1451
130	0xa846	-0.0334
131	0x2b6e	0.05804
132	0x30a8	0.1455
133	0xb0af	-0.1464
134	0x321e	0.1912
135	0x2f54	0.1145
136	0x2d38	0.08154
137	0x1e3d	0.006092
138	0xae50	-0.09863
139	0x3027	0.1298
140	0xa86a	-0.0345
141	0x2f0d	0.11017
142	0xa505	-0.0196
143	0x2a4f	0.0493
144	0x2d42	0.08215
145	0xb102	-0.1565
146	0x1889	0.002214
147	0x9942	-0.002567
148	0xaab3	-0.05234
149	0x2ace	0.05316
150	0x2fd4	0.1223
151	0xaf97	-0.1186
152	0x2cfe	0.078
153	0x2adf	0.05368
154	0xad11	-0.07916
155	0x302e	0.1306
156	0xa2d9	-0.013374
157	0xadb2	-0.089
158	0xaf65	-0.11554
159	0x2e75	0.1009
160	0x2a18	0.0476
161	0x9ebd	-0.00658
162	0xad06	-0.0785
163	0xa83a	-0.03302
164	0x3337	0.2255
165	0x9ca6	-0.00454
166	0x32d6	0.2136
167	0x2e81	0.1016
168	0x9cb7	-0.004604
169	0xaedc	-0.1072
170	0xb0ea	-0.1536
171	0xad67	-0.0844
172	0x2ee1	0.1075
173	0x24ea	0.0192
174	0x3212	0.1897
175	0xaac3	-0.05283
176	0x2509	0.01967
177	0xac72	-0.06946
178	0xa7b3	-0.03008
179	0x2ce7	0.0766
180	0xadbd	-0.08966
181	0x3101	0.1564
182	0x3256	0.198
183	0x3190	0.1738
184	0xa466	-0.01718
185	0xa72d	-0.02803
186	0xad75	-0.08527
187	0x29f2	0.04645
188	0x2f2e	0.1122
189	0xab8d	-0.059
190	0xafc2	-0.1212
191	0x2e01	0.0938
192	0x3313	0.2211
193	0xaf53	-0.11444
194	0x27e2	0.03079
195	0x2c82	0.07043
196	0x2d51	0.08307
197	0x1d16	0.004967
198	0x2c2a	0.06506
199	0xad4d	-0.0828
200	0xa6c9	-0.0265
201	0xb057	-0.1356
202	0x9d0f	-0.00494
203	0x2da9	0.08844
204	0x276e	0.02902
205	0x2d77	0.0854
206	0xa3b0	-0.015015
207	0x2d15	0.0794
208	0xb171	-0.17
209	0x29df	0.04587
210	0x2e8d	0.10236
211	0x272c	0.02802
212	0x2ffe	0.1249
213	0x2ff7	0.12445
214	0xaf9b	-0.11884
215	0xb148	-0.165
216	0x2f17	0.1108
217	0x24ae	0.01828
218	0x309c	0.144
219	0xae49	-0.0982
220	0x2c4a	0.067
221	0x2b88	0.05884
222	0x2f9a	0.1188
223	0xb01d	-0.1285
224	0x30b3	0.1469
225	0x2cb5	0.07355
226	0xaf27	-0.11176
227	0x2958	0.04175
228	0x2f9a	0.1188
229	0xb205	-0.1881
230	0x26d3	0.02666
231	0xac3f	-0.06635
232	0x2e9c	0.1033
233	0x2acf	0.0532
234	0xaab2	-0.0523
235	0x3074	0.1392
236	0xb0cb	-0.1498
237	0xaf0d	-0.11017
238	0x2c1d	0.0643
239	0x27bf	0.03026
240	0x255c	0.02094
241	0xa516	-0.01987
242	0x236e	0.01451
243	0x2c03	0.0627
244	0x9fd9	-0.007664
245	0xad82	-0.08606
246	0xa85b	-0.03403
247	0x2434	0.01642
248	0xad24	-0.0803
249	0xae60	-0.0996
250	0xa9e8	-0.04614
251	0xafca	-0.1217
252	0x2eb5	0.1048
253	0x2ebb	0.10516
254	0x2d0f	0.07904
255	0x2e36	0.09705

arith.constant12 f2 [1, 32]
0	0x3026	0.1296
1	0xa073	-0.00869
2	0xb674	-0.4033
3	0x24ac	0.01825
4	0x3056	0.1355
5	0x30a6	0.1453
6	0x2868	0.03442
7	0x27ab	0.02995
8	0x2f50	0.11426
9	0xb61b	-0.3816
10	0xb672	-0.4028
11	0x2e2e	0.09656
12	0x2629	0.02406
13	0x31b5	0.1783
14	0x2030	0.00818
15	0x1d15	0.004963
16	0x3208	0.1885
17	0xb6c5	-0.423
18	0x2cc1	0.0743
19	0x2ce6	0.07654
20	0x2a21	0.04788
21	0x2760	0.02881
22	0x2995	0.0436
23	0x2ea6	0.1039
24	0xb486	-0.2827
25	0xade6	-0.09216
26	0x2c94	0.07153
27	0x3039	0.132
28	0xb6f5	-0.4348
29	0x2474	0.0174
30	0x2dd5	0.0911
31	0x298a	0.04327
