hey_lucy.tflite (tflite, 63520 bytes, 18 tensors)

tfl.pseudo_qconst1 i1 [1, 2368] scale=0.0030602154 zero_point=0
00000000: ffd1 c7eb c9ff d710 14eb e4d6 ebf5 04f1
00000010: e2ec c9e0 d81b b013 21d4 0bc7 f600 e5f8
00000020: dcef f0ec 1f06 0fc3 33e4 0af2 dae3 ee36
00000030: 1df0 1afb f4da 3ac9 0223 28fc fcd7 fdd7
00000040: 15f0 efe3 ebea f5f9 0bfb e9e5 e8ed feec
00000050: eafd ddcf e01a caee 27f2 11de 0b07 06f3
00000060: f4ef effb 07f3 03de 1f07 09e8 f4ea fa2a
00000070: 0de5 1d08 fbd7 20e0 1619 1215 f2e4 f9d0
00000080: 21fb 0c01 f8f6 e9e2 16fd daf7 f6fc f9d9
00000090: 040c f8e2 dc11 cbed 1f00 16ed fd10 fcf7
000000a0: f0fb e6f1 ecfb fed9 1ef3 02fc feed f909
000000b0: fefa 2605 fbf6 23e7 150c 130f 07fe fada
000000c0: 07f0 0b09 f1fe ecde f6ef e0f8 0ae6 f7e7
000000d0: 0b0b 0be0 f91a dbef 1e18 f1f1 0705 110f
000000e0: fdf6 f1e6 f0f3 0bd8 07fc 0c09 10f6 ed07
000000f0: de07 28f3 fafc 29f7 110c 0617 eff9 fef7
-0.0030602154 -0.14383012 -0.17443228 -0.06426452 -0.16831185 -0.0030602154 -0.12546884 0.048963446
0.061204307 -0.06426452 -0.08568603 -0.12852904 -0.06426452 -0.033662368 0.012240862 -0.045903232
-0.091806464 -0.061204307 -0.16831185 -0.09792689 -0.12240861 0.082625814 -0.24481723 0.058144093
0.10098711 -0.13464947 0.033662368 -0.17443228 -0.030602153 0.0 -0.082625814 -0.024481723
-0.11016776 -0.05202366 -0.048963446 -0.061204307 0.09486668 0.018361293 0.045903232 -0.18667313
0.15607098 -0.08568603 0.030602153 -0.042843014 -0.116288185 -0.08874625 -0.05508388 0.16525163
0.08874625 -0.048963446 0.0795656 -0.015301077 -0.036722586 -0.116288185 0.1774925 -0.16831185
0.006120431 0.107107535 0.12240861 -0.012240862 -0.012240862 -0.12546884 -0.009180646 -0.12546884
0.06426452 -0.048963446 -0.05202366 -0.08874625 -0.06426452 -0.067324735 -0.033662368 -0.021421507
0.033662368 -0.015301077 -0.07038496 -0.082625814 -0.07344517 -0.058144093 -0.006120431 -0.061204307
-0.067324735 -0.009180646 -0.107107535 -0.14995055 -0.09792689 0.0795656 -0.16525163 -0.05508388
0.1193484 -0.042843014 0.05202366 -0.10404732 0.033662368 0.021421507 0.018361293 -0.0397828
-0.036722586 -0.05202366 -0.05202366 -0.015301077 0.021421507 -0.0397828 0.009180646 -0.10404732
0.09486668 0.021421507 0.02754194 -0.07344517 -0.036722586 -0.067324735 -0.018361293 0.12852904
0.0397828 -0.082625814 0.08874625 0.024481723 -0.015301077 -0.12546884 0.09792689 -0.09792689
0.067324735 0.076505385 0.05508388 0.06426452 -0.042843014 -0.08568603 -0.021421507 -0.14689034
0.10098711 -0.015301077 0.036722586 0.0030602154 -0.024481723 -0.030602153 -0.07038496 -0.091806464
0.067324735 -0.009180646 -0.116288185 -0.02754194 -0.030602153 -0.012240862 -0.021421507 -0.1193484
0.012240862 0.036722586 -0.024481723 -0.091806464 -0.11016776 0.05202366 -0.16219142 -0.058144093
0.09486668 0.0 0.067324735 -0.058144093 -0.009180646 0.048963446 -0.012240862 -0.02754194
-0.048963446 -0.015301077 -0.0795656 -0.045903232 -0.061204307 -0.015301077 -0.006120431 -0.1193484
0.091806464 -0.0397828 0.006120431 -0.012240862 -0.006120431 -0.058144093 -0.021421507 0.02754194
-0.006120431 -0.018361293 0.116288185 0.015301077 -0.015301077 -0.030602153 0.107107535 -0.076505385
0.06426452 0.036722586 0.058144093 0.045903232 0.021421507 -0.006120431 -0.018361293 -0.116288185
0.021421507 -0.048963446 0.033662368 0.02754194 -0.045903232 -0.006120431 -0.061204307 -0.10404732
-0.030602153 -0.05202366 -0.09792689 -0.024481723 0.030602153 -0.0795656 -0.02754194 -0.076505385
0.033662368 0.033662368 0.033662368 -0.09792689 -0.021421507 0.0795656 -0.11322797 -0.05202366
0.091806464 0.07344517 -0.045903232 -0.045903232 0.021421507 0.015301077 0.05202366 0.045903232
-0.009180646 -0.030602153 -0.045903232 -0.0795656 -0.048963446 -0.0397828 0.033662368 -0.12240861
0.021421507 -0.012240862 0.036722586 0.02754194 0.048963446 -0.030602153 -0.058144093 0.021421507
-0.10404732 0.021421507 0.12240861 -0.0397828 -0.018361293 -0.012240862 0.12546884 -0.02754194
0.05202366 0.036722586 0.018361293 0.07038496 -0.05202366 -0.021421507 -0.006120431 -0.02754194

tfl.pseudo_qconst3 i1 [64, 1, 1, 64]
00000000: 3afc 0ad2 35ec f614 f739 fbc0 eff1 bc0d
00000010: ee0c edc8 f8df 06d5 c7e3 2d2b 1417 4935
00000020: 0064 21fe f91f f6e5 fcf4 3b1d 4a1a b60d
00000030: 100e 0547 d4f7 c3d7 4925 ed2e 810f 1e0b
00000040: 4605 edfc be0f 2881 2b1d 1a53 d828 09d2
00000050: 2304 50fa e7ca 44c5 20df fbb5 75b7 19ed
00000060: bcb6 1151 cb2a 0e23 2f11 0020 7bba 2f88
00000070: cc00 8afa b0d3 21cb f35e 092e d325 38f6
00000080: ebd4 0aee c24d e6e1 fd2c de53 f822 dc06
00000090: bc61 1f81 d335 3cf7 e029 bedd 2327 3f0b
000000a0: 2e33 283f ae9d d728 fdc1 c908 0bf9 dbea
000000b0: c4da bc30 382d dde1 f4eb edd9 2453 fd50
000000c0: 86d0 4afd 335f 679d f92b d6c4 01cf 6ad1
000000d0: 4cc2 16a0 1901 32e0 2ad3 210c 53aa e255
000000e0: a36b f446 e9a5 70fa ffd4 925c 31e1 cf89
000000f0: a3eb 8107 f5be 3a1e a34e 48e1 433d 33c5
58 -4 10 -46 53 -20 -10 20
-9 57 -5 -64 -17 -15 -68 13
-18 12 -19 -56 -8 -33 6 -43
-57 -29 45 43 20 23 73 53
0 100 33 -2 -7 31 -10 -27
-4 -12 59 29 74 26 -74 13
16 14 5 71 -44 -9 -61 -41
73 37 -19 46 -127 15 30 11
70 5 -19 -4 -66 15 40 -127
43 29 26 83 -40 40 9 -46
35 4 80 -6 -25 -54 68 -59
32 -33 -5 -75 117 -73 25 -19
-68 -74 17 81 -53 42 14 35
47 17 0 32 123 -70 47 -120
-52 0 -118 -6 -80 -45 33 -53
-13 94 9 46 -45 37 56 -10
-21 -44 10 -18 -62 77 -26 -31
-3 44 -34 83 -8 34 -36 6
-68 97 31 -127 -45 53 60 -9
-32 41 -66 -35 35 39 63 11
46 51 40 63 -82 -99 -41 40
-3 -63 -55 8 11 -7 -37 -22
-60 -38 -68 48 56 45 -35 -31
-12 -21 -19 -39 36 83 -3 80
-122 -48 74 -3 51 95 103 -99
-7 43 -42 -60 1 -49 106 -47
76 -62 22 -96 25 1 50 -32
42 -45 33 12 83 -86 -30 85
-93 107 -12 70 -23 -91 112 -6
-1 -44 -110 92 49 -31 -49 -119
-93 -21 -127 7 -11 -66 58 30
-93 78 72 -31 67 61 51 -59

tfl.pseudo_qconst5 i1 [1, 23, 1, 64]
00000000: 7f47 3de7 7fe5 7f81 bc4e f8aa 1aeb ca9b
00000010: 9324 c881 e6e1 7f6d 2d93 6cdb e31d 172f
00000020: b85c 2fe3 f081 4d10 7f28 198a 0c7f 73e7
00000030: 7aaf 27fa 182a 9607 231c 5181 cbe7 7f7f
00000040: 694e 07ef 5223 58a2 cd2b dcc3 26da e181
00000050: c92a cf98 eeb5 4d1d 2181 4ad8 e510 e731
00000060: b94a 59f6 f882 6509 4e2b 0789 f559 55ef
00000070: 7fa3 23fc fc27 b2d5 3638 5bab badc 6244
00000080: 407f 04d8 4ae7 18c5 ef1c f9da 23cc d9aa
00000090: a93b c8cd ea8c 4659 160b 049d 0629 4305
000000a0: c73d 7fdc f192 2df6 3b17 0d81 ed55 0f06
000000b0: 40b0 25f1 f078 c7d4 3424 7c91 c8dc 320a
000000c0: 3919 f3e3 3ef3 2fc1 eb0d de04 32cb f69e
000000d0: 8f44 cfef ea86 4be6 1c1a d957 df2d 2c1e
000000e0: d837 6fad 00c2 4601 0d33 15c2 b45e e709
000000f0: 499b 11f1 d27f e1c1 3ef2 43ab c721 40fe
127 71 61 -25 127 -27 127 -127
-68 78 -8 -86 26 -21 -54 -101
-109 36 -56 -127 -26 -31 127 109
45 -109 108 -37 -29 29 23 47
-72 92 47 -29 -16 -127 77 16
127 40 25 -118 12 127 115 -25
122 -81 39 -6 24 42 -106 7
35 28 81 -127 -53 -25 127 127
105 78 7 -17 82 35 88 -94
-51 43 -36 -61 38 -38 -31 -127
-55 42 -49 -104 -18 -75 77 29
33 -127 74 -40 -27 16 -25 49
-71 74 89 -10 -8 -126 101 9
78 43 7 -119 -11 89 85 -17
127 -93 35 -4 -4 39 -78 -43
54 56 91 -85 -70 -36 98 68
64 127 4 -40 74 -25 24 -59
-17 28 -7 -38 35 -52 -39 -86
-87 59 -56 -51 -22 -116 70 89
22 11 4 -99 6 41 67 5
-57 61 127 -36 -15 -110 45 -10
59 23 13 -127 -19 85 15 6
64 -80 37 -15 -16 120 -57 -44
52 36 124 -111 -56 -36 50 10
57 25 -13 -29 62 -13 47 -63
-21 13 -34 4 50 -53 -10 -98
-113 68 -49 -17 -22 -122 75 -26
28 26 -39 87 -33 45 44 30
-40 55 111 -83 0 -62 70 1
13 51 21 -62 -76 94 -25 9
73 -101 17 -15 -46 127 -31 -63
62 -14 67 -85 -57 33 64 -2

tfl.pseudo_qconst7 i1 [64, 1, 1, 64]
00000000: ccd7 4ee3 65a2 21b1 2417 8755 0521 c234
00000010: b647 c316 c8ab 4cba 3d14 b027 00e5 e5f0
00000020: 04c0 eed2 2bfb 09fa f9de bef5 27c5 2d2c
00000030: 2a5d e992 43a5 39a1 3b03 7fe3 f9f5 e05b
00000040: fdab 2c9a efe9 2ca3 281a dc47 2bbf ea13
00000050: 6c4b f62b 43e1 5e40 1d4a 5d28 f6e8 fc33
00000060: 00a8 1206 0fc7 df40 51d5 fcf2 0d01 cc13
00000070: 8128 ebfc 3722 f34e 74d6 d009 1319 b4a3
00000080: caf7 fddd adf5 06ec bad9 ba37 264a c111
00000090: 2f4c 1bc4 bde6 5711 2fc9 2a40 1de7 e119
000000a0: 3831 050b be95 a7e0 e7f3 31b4 2367 5207
000000b0: 113f d435 81ff cc47 cb27 21da 3e07 e0e3
000000c0: cc1e cfe5 0a31 4fe9 e4b9 b6a0 13d6 7aed
000000d0: 63e5 0cda 96fa 6d3b 1051 58d7 f7ec e007
000000e0: 1bda ceca 09bf 3e49 1e05 01ea f2f9 29cc
000000f0: 03d1 0114 317f c90c 1ef5 e3df 3bcc 0cc4
-52 -41 78 -29 101 -94 33 -79
36 23 -121 85 5 33 -62 52
-74 71 -61 22 -56 -85 76 -70
61 20 -80 39 0 -27 -27 -16
4 -64 -18 -46 43 -5 9 -6
-7 -34 -66 -11 39 -59 45 44
42 93 -23 -110 67 -91 57 -95
59 3 127 -29 -7 -11 -32 91
-3 -85 44 -102 -17 -23 44 -93
40 26 -36 71 43 -65 -22 19
108 75 -10 43 67 -31 94 64
29 74 93 40 -10 -24 -4 51
0 -88 18 6 15 -57 -33 64
81 -43 -4 -14 13 1 -52 19
-127 40 -21 -4 55 34 -13 78
116 -42 -48 9 19 25 -76 -93
-54 -9 -3 -35 -83 -11 6 -20
-70 -39 -70 55 38 74 -63 17
47 76 27 -60 -67 -26 87 17
47 -55 42 64 29 -25 -31 25
56 49 5 11 -66 -107 -89 -32
-25 -13 49 -76 35 103 82 7
17 63 -44 53 -127 -1 -52 71
-53 39 33 -38 62 7 -32 -29
-52 30 -49 -27 10 49 79 -23
-28 -71 -74 -96 19 -42 122 -19
99 -27 12 -38 -106 -6 109 59
16 81 88 -41 -9 -20 -32 7
27 -38 -50 -54 9 -65 62 73
30 5 1 -22 -14 -7 41 -52
3 -47 1 20 49 127 -55 12
30 -11 -29 -33 59 -52 12 -60

tfl.pseudo_qconst9 i1 [1, 15, 1, 32]
00000000: 7596 1181 b235 7f1d b481 0635 297e 7f7f
00000010: 177b 2f81 2eb0 b581 5319 3863 5f0b f85f
00000020: 6891 118e dc56 6eab cba3 47e5 f77f 472a
00000030: 347f 23ce 08a9 e094 52d2 5bb1 0ae9 f51a
00000040: 71f3 b8c3 261c 4aa5 948d 5d2c 3c3e 2a39
00000050: 4f3c 4424 0e81 05dc 7fd6 7d95 96fb c200
00000060: 52f8 b800 d148 41af ceca 0eef 4111 1172
00000070: 7f65 771a c0a0 bde7 797d 5981 e68e c330
00000080: f673 b703 ce65 3c81 d58d 5916 360a 1420
00000090: 4d2d 0142 b3ab f5e7 620c 7f8c d2cb de17
000000a0: 7f7f aae2 327c fb87 848d 221a 3f2f 0412
000000b0: 403a 433f a4f4 2714 48ed 312e fc81 c196
000000c0: 006b a125 2d7f 119b 0ddd 7f38 3e19 dd1f
000000d0: 043a 1633 9def d4dc 3952 4538 aea4 c896
000000e0: 0232 8212 1b43 33a6 f7bc 1d24 46fc 1244
000000f0: dee5 3e4e a04c 30c8 4a36 1500 8cdd c6aa
117 -106 17 -127 -78 53 127 29
-76 -127 6 53 41 126 127 127
23 123 47 -127 46 -80 -75 -127
83 25 56 99 95 11 -8 95
104 -111 17 -114 -36 86 110 -85
-53 -93 71 -27 -9 127 71 42
52 127 35 -50 8 -87 -32 -108
82 -46 91 -79 10 -23 -11 26
113 -13 -72 -61 38 28 74 -91
-108 -115 93 44 60 62 42 57
79 60 68 36 14 -127 5 -36
127 -42 125 -107 -106 -5 -62 0
82 -8 -72 0 -47 72 65 -81
-50 -54 14 -17 65 17 17 114
127 101 119 26 -64 -96 -67 -25
121 125 89 -127 -26 -114 -61 48
-10 115 -73 3 -50 101 60 -127
-43 -115 89 22 54 10 20 32
77 45 1 66 -77 -85 -11 -25
98 12 127 -116 -46 -53 -34 23
127 127 -86 -30 50 124 -5 -121
-124 -115 34 26 63 47 4 18
64 58 67 63 -92 -12 39 20
72 -19 49 46 -4 -127 -63 -106
0 107 -95 37 45 127 17 -101
13 -35 127 56 62 25 -35 31
4 58 22 51 -99 -17 -44 -36
57 82 69 56 -82 -92 -56 -106
2 50 -126 18 27 67 51 -90
-9 -68 29 36 70 -4 18 68
-34 -27 62 78 -96 76 48 -56
74 54 21 0 -116 -35 -58 -86

tfl.pseudo_qconst11 i1 [1, 9, 1, 32]
00000000: c5f2 0d22 188f 6fbc 7c7f 64b3 0a29 0a26
00000010: 22a6 99ad fdc1 2435 81f2 f4cd 97e0 7fad
00000020: 21d6 59fc ba09 589e 5642 7f1b a9d0 2404
00000030: 24de 8196 0994 17f7 ea02 1be9 b8c3 5985
00000040: 29b5 63b6 ce93 53f5 062a 22e6 d4f6 044e
00000050: 0581 b281 09fd b552 c0e2 12fd eed8 79dd
00000060: 6054 0fac 91a5 d34a ee05 3492 c6ee 1051
00000070: 260f edcc f809 e554 e4e7 0fc2 81f8 161e
00000080: 74f1 4e3c aa8d aa01 03fa f8d9 cb0a 073c
00000090: 7efa f3e8 d5f9 f773 3805 eb31 9581 e440
000000a0: 1122 ab33 31f8 c9d4 d304 0f9d cb00 fc21
000000b0: 7fe4 e5d7 c106 d84e 62f5 dcb8 ec82 c416
000000c0: 4042 8174 3b81 a2ba 96e9 2aaf c003 16c8
000000d0: 0f7d 200e d8ac e17f 3011 ed97 cd96 ce37
000000e0: 745c 8320 7f87 c67f ccd1 5e81 97b1 56bc
000000f0: a012 e808 aac3 9f01 48cf ae84 024d 007f
-59 -14 13 34 24 -113 111 -68
124 127 100 -77 10 41 10 38
34 -90 -103 -83 -3 -63 36 53
-127 -14 -12 -51 -105 -32 127 -83
33 -42 89 -4 -70 9 88 -98
86 66 127 27 -87 -48 36 4
36 -34 -127 -106 9 -108 23 -9
-22 2 27 -23 -72 -61 89 -123
41 -75 99 -74 -50 -109 83 -11
6 42 34 -26 -44 -10 4 78
5 -127 -78 -127 9 -3 -75 82
-64 -30 18 -3 -18 -40 121 -35
96 84 15 -84 -111 -91 -45 74
-18 5 52 -110 -58 -18 16 81
38 15 -19 -52 -8 9 -27 84
-28 -25 15 -62 -127 -8 22 30
116 -15 78 60 -86 -115 -86 1
3 -6 -8 -39 -53 10 7 60
126 -6 -13 -24 -43 -7 -9 115
56 5 -21 49 -107 -127 -28 64
17 34 -85 51 49 -8 -55 -44
-45 4 15 -99 -53 0 -4 33
127 -28 -27 -41 -63 6 -40 78
98 -11 -36 -72 -20 -126 -60 22
64 66 -127 116 59 -127 -94 -70
-106 -23 42 -81 -64 3 22 -56
15 125 32 14 -40 -84 -31 127
48 17 -19 -105 -51 -106 -50 55
116 92 -125 32 127 -121 -58 127
-52 -47 94 -127 -105 -79 86 -68
-96 18 -24 8 -86 -61 -97 1
72 -49 -82 -124 2 77 0 127

tfl.pseudo_qconst13 i1 [64, 1, 1, 64]
00000000: 21d8 44f1 1900 6627 fa3f cfd4 b29c b2e0
00000010: 1e95 241d 4fcb 087f 4641 043d f826 2e98
00000020: 0c49 2053 e4b3 db0e d8c0 fe06 ce7f c4b6
00000030: cedf 1213 fc25 52f9 f6f1 3cec 042f bd3e
00000040: 00d9 c1ed 975a e30d 35d2 ccdc e414 370b
00000050: 25eb dbad 4bd3 ef81 cfe3 b126 4dd7 3833
00000060: fe3c f01d 35f7 dfe6 2702 6442 264e d3f2
00000070: f0b3 ec2b ede2 14c5 1eec 29c0 370d 20d1
00000080: e0f7 f9d2 cb39 e3e8 cacb 02f9 7230 28d6
00000090: 1ffa 36fd 3c0f 00b7 c51f 0506 eaa5 fd16
000000a0: d2c0 1101 335d c2e4 472f 142d dc01 d841
000000b0: f442 81fd ff63 0609 0b11 b802 0e20 ebc1
000000c0: 00ce b7f0 1702 ff4f abc1 bdd1 32df eccd
000000d0: cedf 100d 3420 dad8 fb17 39ae 06e2 f7da
000000e0: 16da d5d2 14bf 1111 1f31 aa84 b01c 5f54
000000f0: 132a a57f c759 db44 04cb a0d4 d0fb f9e6
33 -40 68 -15 25 0 102 39
-6 63 -49 -44 -78 -100 -78 -32
30 -107 36 29 79 -53 8 127
70 65 4 61 -8 38 46 -104
12 73 32 83 -28 -77 -37 14
-40 -64 -2 6 -50 127 -60 -74
-50 -33 18 19 -4 37 82 -7
-10 -15 60 -20 4 47 -67 62
0 -39 -63 -19 -105 90 -29 13
53 -46 -52 -36 -28 20 55 11
37 -21 -37 -83 75 -45 -17 -127
-49 -29 -79 38 77 -41 56 51
-2 60 -16 29 53 -9 -33 -26
39 2 100 66 38 78 -45 -14
-16 -77 -20 43 -19 -30 20 -59
30 -20 41 -64 55 13 32 -47
-32 -9 -7 -46 -53 57 -29 -24
-54 -53 2 -7 114 48 40 -42
31 -6 54 -3 60 15 0 -73
-59 31 5 6 -22 -91 -3 22
-46 -64 17 1 51 93 -62 -28
71 47 20 45 -36 1 -40 65
-12 66 -127 -3 -1 99 6 9
11 17 -72 2 14 32 -21 -63
0 -50 -73 -16 23 2 -1 79
-85 -63 -67 -47 50 -33 -20 -51
-50 -33 16 13 52 32 -38 -40
-5 23 57 -82 6 -30 -9 -38
22 -38 -43 -46 20 -65 17 17
31 49 -86 -124 -80 28 95 84
19 42 -91 127 -57 89 -37 68
4 -53 -96 -44 -48 -5 -7 -26

tfl.pseudo_qconst15 i1 [1, 11, 1, 32]
00000000: c647 bf32 c1f8 23ad 2ce0 0e46 81ca b47f
00000010: b8a1 b0e6 7f7f 655c 2f51 ea7f f643 f57f
00000020: 0727 e57f 9707 d08c eef3 11fe 87cc c528
00000030: 2181 31fa 4c49 7f36 6b25 7f6a 1f1c 0550
00000040: 377f e3cc 9d10 0481 0f81 d9ff ff1c c94f
00000050: ceab 7ffa 303a 63fb 4119 6e73 6bea 0c4e
00000060: f96f f46e afd2 e99a f5b0 8131 9e16 d81e
00000070: d105 51fe de4b 5e05 c3b7 7637 7f09 e719
00000080: 4503 2f60 f5de cd9c bbfd ba32 1741 f0da
00000090: d6d7 56cd d517 23eb c8bc 7759 4ada 210f
000000a0: 7a00 2a24 a5e8 1df1 ac34 c3c8 06f5 fc19
000000b0: 410c fecb 01e9 22ef b390 22c5 410a e4e2
000000c0: 1ff3 3164 fae4 6b30 f20c efb4 d5cf 1f02
000000d0: 301f dbd7 1dfa cda0 c481 a56a d83d 87c5
000000e0: c0f1 37ca c417 4f53 0948 22a8 eedc 3016
000000f0: beb5 aee2 fede d3ed 34ee 8c1f 954c 81df
-58 71 -65 50 -63 -8 35 -83
44 -32 14 70 -127 -54 -76 127
-72 -95 -80 -26 127 127 101 92
47 81 -22 127 -10 67 -11 127
7 39 -27 127 -105 7 -48 -116
-18 -13 17 -2 -121 -52 -59 40
33 -127 49 -6 76 73 127 54
107 37 127 106 31 28 5 80
55 127 -29 -52 -99 16 4 -127
15 -127 -39 -1 -1 28 -55 79
-50 -85 127 -6 48 58 99 -5
65 25 110 115 107 -22 12 78
-7 111 -12 110 -81 -46 -23 -102
-11 -80 -127 49 -98 22 -40 30
-47 5 81 -2 -34 75 94 5
-61 -73 118 55 127 9 -25 25
69 3 47 96 -11 -34 -51 -100
-69 -3 -70 50 23 65 -16 -38
-42 -41 86 -51 -43 23 35 -21
-56 -68 119 89 74 -38 33 15
122 0 42 36 -91 -24 29 -15
-84 52 -61 -56 6 -11 -4 25
65 12 -2 -53 1 -23 34 -17
-77 -112 34 -59 65 10 -28 -30
31 -13 49 100 -6 -28 107 48
-14 12 -17 -76 -43 -49 31 2
48 31 -37 -41 29 -6 -51 -96
-60 -127 -91 106 -40 61 -121 -59
-64 -15 55 -54 -60 23 79 83
9 72 34 -88 -18 -36 48 22
-66 -75 -82 -30 -2 -34 -45 -19
52 -18 -116 31 -107 76 -127 -33

tfl.pseudo_qconst17 i1 [1, 7, 1, 32]
00000000: fa22 5122 d933 b514 1a26 d77f 7f3b 81d3
00000010: d718 7981 0c56 8108 007f 0bbd f327 f553
00000020: cf28 7f2b ab61 8162 147f 0c23 f7f0 bcf4
00000030: f00c 6a8b 817f 9af6 b82f 3c98 e2cc 4956
00000040: 9e2d 195b 815e a5e7 893a 2972 fcbb e3be
00000050: 0a0d 6f4d cd66 d9d8 046f 3728 61cf 4cff
00000060: 4c60 3b56 9d7f e84b 841f fa72 2d81 ebc2
00000070: cd0b 58f8 812c 1dab 325b 347f 0f81 4fe6
00000080: 1e7f d56c cad1 061c 8140 e1e1 4c91 be09
00000090: 27fa 6d20 9943 36af 550b f474 7fd4 fe9a
000000a0: 7f6e ddeb 7445 f97f bee7 c4b7 c7f2 c27f
000000b0: 7fc1 7fb0 a2e8 6981 7f22 b312 2e94 e9b1
000000c0: 313a b87f 3ac5 ce7c 41d3 8118 ae01 467a
000000d0: 7781 e3ff 2961 2aa5 45c3 81e7 29b8 8181
-6 34 81 34 -39 51 -75 20
26 38 -41 127 127 59 -127 -45
-41 24 121 -127 12 86 -127 8
0 127 11 -67 -13 39 -11 83
-49 40 127 43 -85 97 -127 98
20 127 12 35 -9 -16 -68 -12
-16 12 106 -117 -127 127 -102 -10
-72 47 60 -104 -30 -52 73 86
-98 45 25 91 -127 94 -91 -25
-119 58 41 114 -4 -69 -29 -66
10 13 111 77 -51 102 -39 -40
4 111 55 40 97 -49 76 -1
76 96 59 86 -99 127 -24 75
-124 31 -6 114 45 -127 -21 -62
-51 11 88 -8 -127 44 29 -85
50 91 52 127 15 -127 79 -26
30 127 -43 108 -54 -47 6 28
-127 64 -31 -31 76 -111 -66 9
39 -6 109 32 -103 67 54 -81
85 11 -12 116 127 -44 -2 -102
127 110 -35 -21 116 69 -7 127
-66 -25 -60 -73 -57 -14 -62 127
127 -63 127 -80 -94 -24 105 -127
127 34 -77 18 46 -108 -23 -79
49 58 -72 127 58 -59 -50 124
65 -45 -127 24 -82 1 70 122
119 -127 -29 -1 41 97 42 -91
69 -61 -127 -25 41 -72 -127 -127

tfl.pseudo_qconst19 i1 [64, 1, 1, 32]
00000000: 55fd d8b9 1b16 f503 301f 02de ca18 047f
00000010: 0a2c 1e05 2cef f105 09c9 b6f5 0313 feee
00000020: 15ea ea10 1a2b 2b04 431f 3e81 ddd8 c131
00000030: b407 af0d 15fc aff8 90cc 001a 5a52 d719
00000040: 6381 f3c3 aa06 e9a8 1ef9 3529 3ed9 34c4
00000050: 170d 08fe b4c1 d433 1cd3 ccc7 08a4 0531
00000060: e1d0 ed0b 7f23 0fdf d0fc 211a e7cd e3c4
00000070: 2210 1e19 e3f4 2bd0 e3d1 1ffe d8c7 102b
00000080: b32c e39b c9bd 03e4 d4c6 0cea cb52 c7f9
00000090: 1251 02ec b80e 0ef2 eccf 7f32 2703 0b2d
000000a0: 20fd dcf8 35f7 48dd 5a35 f2ec 37f5 b724
000000b0: 9503 12d4 d3e8 ff10 81bf c80b 51f6 e34d
000000c0: 53d3 a381 1af8 4eef 0643 4dd0 161e 0f46
000000d0: e1ba 2145 ae0a c31e cb31 cf42 19e0 176b
000000e0: bb4f 5319 14d2 d5b6 cfec e513 1d21 2113
000000f0: fb49 5953 42a7 d95d 7fef e8de 4a2c 01b4
85 -3 -40 -71 27 22 -11 3
48 31 2 -34 -54 24 4 127
10 44 30 5 44 -17 -15 5
9 -55 -74 -11 3 19 -2 -18
21 -22 -22 16 26 43 43 4
67 31 62 -127 -35 -40 -63 49
-76 7 -81 13 21 -4 -81 -8
-112 -52 0 26 90 82 -41 25
99 -127 -13 -61 -86 6 -23 -88
30 -7 53 41 62 -39 52 -60
23 13 8 -2 -76 -63 -44 51
28 -45 -52 -57 8 -92 5 49
-31 -48 -19 11 127 35 15 -33
-48 -4 33 26 -25 -51 -29 -60
34 16 30 25 -29 -12 43 -48
-29 -47 31 -2 -40 -57 16 43
-77 44 -29 -101 -55 -67 3 -28
-44 -58 12 -22 -53 82 -57 -7
18 81 2 -20 -72 14 14 -14
-20 -49 127 50 39 3 11 45
32 -3 -36 -8 53 -9 72 -35
90 53 -14 -20 55 -11 -73 36
-107 3 18 -44 -45 -24 -1 16
-127 -65 -56 11 81 -10 -29 77
83 -45 -93 -127 26 -8 78 -17
6 67 77 -48 22 30 15 70
-31 -70 33 69 -82 10 -61 30
-53 49 -49 66 25 -32 23 107
-69 79 83 25 20 -46 -43 -74
-49 -20 -27 19 29 33 33 19
-5 73 89 83 66 -89 -39 93
127 -17 -24 -34 74 44 1 -76

tfl.pseudo_qconst21 i1 [1, 5, 1, 32]
00000000: 4aa2 0497 df1c 6ba0 dabe 2816 9581 db21
00000010: 810a 7ffa 7f04 7fbf 957f 19ed f960 22a8
00000020: 5391 7f81 fb81 2381 22d9 1d68 f294 df69
00000030: 1003 6b7f 1f10 5252 c025 097f 7f33 12fa
00000040: 51cb 40ad 7f21 7697 3549 dd28 7f8d ba6a
00000050: a83f 6b66 3c81 756a 819c 8144 337f 7f9f
00000060: ad2f 28b3 6cdd 7f42 2754 df7f 5551 817f
00000070: be5d 44e4 78b8 3613 d790 c22f 552d f9d5
00000080: 817f 591c 408b f5e0 817f 811b 4037 b6f7
00000090: 1a7f f25f c4b0 507f cf11 6641 c588 4281
74 -94 4 -105 -33 28 107 -96
-38 -66 40 22 -107 -127 -37 33
-127 10 127 -6 127 4 127 -65
-107 127 25 -19 -7 96 34 -88
83 -111 127 -127 -5 -127 35 -127
34 -39 29 104 -14 -108 -33 105
16 3 107 127 31 16 82 82
-64 37 9 127 127 51 18 -6
81 -53 64 -83 127 33 118 -105
53 73 -35 40 127 -115 -70 106
-88 63 107 102 60 -127 117 106
-127 -100 -127 68 51 127 127 -97
-83 47 40 -77 108 -35 127 66
39 84 -33 127 85 81 -127 127
-66 93 68 -28 120 -72 54 19
-41 -112 -62 47 85 45 -7 -43
-127 127 89 28 64 -117 -11 -32
-127 127 -127 27 64 55 -74 -9
26 127 -14 95 -60 -80 80 127
-49 17 102 65 -59 -120 66 -127

tfl.pseudo_qconst23 i1 [32, 5, 1, 40]
00000000: 0106 d2f0 81b0 2b2e e517 b7e7 ecb9 f2b0
00000010: bce7 19c7 f7de d5f5 1b2f 5a12 23fb 3ac0
00000020: e42d 2723 0a13 4e5d 1709 f90c 96db 4d37
00000030: 0e2d fff9 fde5 f2b8 b203 1def f7e8 efbf
00000040: 0716 3428 3d3a 1ef0 113a 573b 2923 445d
00000050: e95a 172a ef2c 3d23 ea2c 0034 fae7 ddca
00000060: 9de8 27dd 06e6 cdea 03f9 53fd 34db fe16
00000070: 4641 2d41 012d 5b53 d15a e917 d71a 1976
00000080: 392e d8f9 26ea 00be 98f1 3af7 ebf8 0deb
00000090: ed2b 381c 3f24 0f2c 4861 492d 134f 687a
000000a0: 032f 2846 0c03 3e5d 482e 481a 06ea f5ba
000000b0: dd15 2828 340c 080d 021a 2221 eafd 2720
000000c0: 2c66 1c34 1663 6052 7fea 363f 14e7 0e12
000000d0: 14cc 171c fe25 25f3 d8df ebf8 f0dd 05fa
000000e0: f210 ca14 0bf4 f5f7 f1d2 b2f1 c8cf bae6
000000f0: 72f8 2612 1f16 2e3a 04fd 13f7 f819 1bd1
1 6 -46 -16 -127 -80 43 46
-27 23 -73 -25 -20 -71 -14 -80
-68 -25 25 -57 -9 -34 -43 -11
27 47 90 18 35 -5 58 -64
-28 45 39 35 10 19 78 93
23 9 -7 12 -106 -37 77 55
14 45 -1 -7 -3 -27 -14 -72
-78 3 29 -17 -9 -24 -17 -65
7 22 52 40 61 58 30 -16
17 58 87 59 41 35 68 93
-23 90 23 42 -17 44 61 35
-22 44 0 52 -6 -25 -35 -54
-99 -24 39 -35 6 -26 -51 -22
3 -7 83 -3 52 -37 -2 22
70 65 45 65 1 45 91 83
-47 90 -23 23 -41 26 25 118
57 46 -40 -7 38 -22 0 -66
-104 -15 58 -9 -21 -8 13 -21
-19 43 56 28 63 36 15 44
72 97 73 45 19 79 104 122
3 47 40 70 12 3 62 93
72 46 72 26 6 -22 -11 -70
-35 21 40 40 52 12 8 13
2 26 34 33 -22 -3 39 32
44 102 28 52 22 99 96 82
127 -22 54 63 20 -25 14 18
20 -52 23 28 -2 37 37 -13
-40 -33 -21 -8 -16 -35 5 -6
-14 16 -54 20 11 -12 -11 -9
-15 -46 -78 -15 -56 -49 -70 -26
114 -8 38 18 31 22 46 58
4 -3 19 -9 -8 25 27 -47

tfl.pseudo_qconst24 i1 [1, 14, 1, 64] scale=0.038380396 zero_point=-128
00000000: 8080 8080 8080 8080 8080 8080 8080 8080
00000010: 8080 8080 8080 8080 8080 8080 8080 8080
00000020: 8080 8080 8080 8080 8080 8080 8080 8080
00000030: 8080 8080 8080 8080 8080 8080 8080 8080
00000040: 8080 8080 8080 8080 8080 8080 8080 8080
00000050: 8080 8080 8080 8080 8080 8080 8080 8080
00000060: 8080 8080 8080 8080 8080 8080 8080 8080
00000070: 8080 8080 8080 8080 8080 8080 8080 8080
00000080: 8080 8080 8080 8080 8080 8080 8080 8080
00000090: 8080 8080 8080 8080 8080 8080 8080 8080
000000a0: 8080 8080 8080 8080 8080 8080 8080 8080
000000b0: 8080 8080 8080 8080 8080 8080 8080 8080
000000c0: 8080 8080 8080 8080 8080 8080 8080 8080
000000d0: 8080 8080 8080 8080 8080 8080 8080 8080
000000e0: 8080 8080 8080 8080 8080 8080 8080 8080
000000f0: 8080 8080 8080 8080 8080 8080 8080 8080
0.0 0.0 0.0 0.0 0.0 0.0 0.0 0.0
0.0 0.0 0.0 0.0 0.0 0.0 0.0 0.0
0.0 0.0 0.0 0.0 0.0 0.0 0.0 0.0
0.0 0.0 0.0 0.0 0.0 0.0 0.0 0.0
0.0 0.0 0.0 0.0 0.0 0.0 0.0 0.0
0.0 0.0 0.0 0.0 0.0 0.0 0.0 0.0
0.0 0.0 0.0 0.0 0.0 0.0 0.0 0.0
0.0 0.0 0.0 0.0 0.0 0.0 0.0 0.0
0.0 0.0 0.0 0.0 0.0 0.0 0.0 0.0
0.0 0.0 0.0 0.0 0.0 0.0 0.0 0.0
0.0 0.0 0.0 0.0 0.0 0.0 0.0 0.0
0.0 0.0 0.0 0.0 0.0 0.0 0.0 0.0
0.0 0.0 0.0 0.0 0.0 0.0 0.0 0.0
0.0 0.0 0.0 0.0 0.0 0.0 0.0 0.0
0.0 0.0 0.0 0.0 0.0 0.0 0.0 0.0
0.0 0.0 0.0 0.0 0.0 0.0 0.0 0.0
0.0 0.0 0.0 0.0 0.0 0.0 0.0 0.0
0.0 0.0 0.0 0.0 0.0 0.0 0.0 0.0
0.0 0.0 0.0 0.0 0.0 0.0 0.0 0.0
0.0 0.0 0.0 0.0 0.0 0.0 0.0 0.0
0.0 0.0 0.0 0.0 0.0 0.0 0.0 0.0
0.0 0.0 0.0 0.0 0.0 0.0 0.0 0.0
0.0 0.0 0.0 0.0 0.0 0.0 0.0 0.0
0.0 0.0 0.0 0.0 0.0 0.0 0.0 0.0
0.0 0.0 0.0 0.0 0.0 0.0 0.0 0.0
0.0 0.0 0.0 0.0 0.0 0.0 0.0 0.0
0.0 0.0 0.0 0.0 0.0 0.0 0.0 0.0
0.0 0.0 0.0 0.0 0.0 0.0 0.0 0.0
0.0 0.0 0.0 0.0 0.0 0.0 0.0 0.0
0.0 0.0 0.0 0.0 0.0 0.0 0.0 0.0
0.0 0.0 0.0 0.0 0.0 0.0 0.0 0.0
0.0 0.0 0.0 0.0 0.0 0.0 0.0 0.0

tfl.pseudo_qconst25 i1 [1, 10, 1, 64] scale=0.029766912 zero_point=-128
00000000: 8080 8080 8080 8080 8080 8080 8080 8080
00000010: 8080 8080 8080 8080 8080 8080 8080 8080
00000020: 8080 8080 8080 8080 8080 8080 8080 8080
00000030: 8080 8080 8080 8080 8080 8080 8080 8080
00000040: 8080 8080 8080 8080 8080 8080 8080 8080
00000050: 8080 8080 8080 8080 8080 8080 8080 8080
00000060: 8080 8080 8080 8080 8080 8080 8080 8080
00000070: 8080 8080 8080 8080 8080 8080 8080 8080
00000080: 8080 8080 8080 8080 8080 8080 8080 8080
00000090: 8080 8080 8080 8080 8080 8080 8080 8080
000000a0: 8080 8080 8080 8080 8080 8080 8080 8080
000000b0: 8080 8080 8080 8080 8080 8080 8080 8080
000000c0: 8080 8080 8080 8080 8080 8080 8080 8080
000000d0: 8080 8080 8080 8080 8080 8080 8080 8080
000000e0: 8080 8080 8080 8080 8080 8080 8080 8080
000000f0: 8080 8080 8080 8080 8080 8080 8080 8080
0.0 0.0 0.0 0.0 0.0 0.0 0.0 0.0
0.0 0.0 0.0 0.0 0.0 0.0 0.0 0.0
0.0 0.0 0.0 0.0 0.0 0.0 0.0 0.0
0.0 0.0 0.0 0.0 0.0 0.0 0.0 0.0
0.0 0.0 0.0 0.0 0.0 0.0 0.0 0.0
0.0 0.0 0.0 0.0 0.0 0.0 0.0 0.0
0.0 0.0 0.0 0.0 0.0 0.0 0.0 0.0
0.0 0.0 0.0 0.0 0.0 0.0 0.0 0.0
0.0 0.0 0.0 0.0 0.0 0.0 0.0 0.0
0.0 0.0 0.0 0.0 0.0 0.0 0.0 0.0
0.0 0.0 0.0 0.0 0.0 0.0 0.0 0.0
0.0 0.0 0.0 0.0 0.0 0.0 0.0 0.0
0.0 0.0 0.0 0.0 0.0 0.0 0.0 0.0
0.0 0.0 0.0 0.0 0.0 0.0 0.0 0.0
0.0 0.0 0.0 0.0 0.0 0.0 0.0 0.0
0.0 0.0 0.0 0.0 0.0 0.0 0.0 0.0
0.0 0.0 0.0 0.0 0.0 0.0 0.0 0.0
0.0 0.0 0.0 0.0 0.0 0.0 0.0 0.0
0.0 0.0 0.0 0.0 0.0 0.0 0.0 0.0
0.0 0.0 0.0 0.0 0.0 0.0 0.0 0.0
0.0 0.0 0.0 0.0 0.0 0.0 0.0 0.0
0.0 0.0 0.0 0.0 0.0 0.0 0.0 0.0
0.0 0.0 0.0 0.0 0.0 0.0 0.0 0.0
0.0 0.0 0.0 0.0 0.0 0.0 0.0 0.0
0.0 0.0 0.0 0.0 0.0 0.0 0.0 0.0
0.0 0.0 0.0 0.0 0.0 0.0 0.0 0.0
0.0 0.0 0.0 0.0 0.0 0.0 0.0 0.0
0.0 0.0 0.0 0.0 0.0 0.0 0.0 0.0
0.0 0.0 0.0 0.0 0.0 0.0 0.0 0.0
0.0 0.0 0.0 0.0 0.0 0.0 0.0 0.0
0.0 0.0 0.0 0.0 0.0 0.0 0.0 0.0
0.0 0.0 0.0 0.0 0.0 0.0 0.0 0.0

tfl.pseudo_qconst26 i1 [1, 4, 1, 32] scale=1.0174376 zero_point=-128
00000000: 8080 8080 8080 8080 8080 8080 8080 8080
00000010: 8080 8080 8080 8080 8080 8080 8080 8080
00000020: 8080 8080 8080 8080 8080 8080 8080 8080
00000030: 8080 8080 8080 8080 8080 8080 8080 8080
00000040: 8080 8080 8080 8080 8080 8080 8080 8080
00000050: 8080 8080 8080 8080 8080 8080 8080 8080
00000060: 8080 8080 8080 8080 8080 8080 8080 8080
00000070: 8080 8080 8080 8080 8080 8080 8080 8080
0.0 0.0 0.0 0.0 0.0 0.0 0.0 0.0
0.0 0.0 0.0 0.0 0.0 0.0 0.0 0.0
0.0 0.0 0.0 0.0 0.0 0.0 0.0 0.0
0.0 0.0 0.0 0.0 0.0 0.0 0.0 0.0
0.0 0.0 0.0 0.0 0.0 0.0 0.0 0.0
0.0 0.0 0.0 0.0 0.0 0.0 0.0 0.0
0.0 0.0 0.0 0.0 0.0 0.0 0.0 0.0
0.0 0.0 0.0 0.0 0.0 0.0 0.0 0.0
0.0 0.0 0.0 0.0 0.0 0.0 0.0 0.0
0.0 0.0 0.0 0.0 0.0 0.0 0.0 0.0
0.0 0.0 0.0 0.0 0.0 0.0 0.0 0.0
0.0 0.0 0.0 0.0 0.0 0.0 0.0 0.0
0.0 0.0 0.0 0.0 0.0 0.0 0.0 0.0
0.0 0.0 0.0 0.0 0.0 0.0 0.0 0.0
0.0 0.0 0.0 0.0 0.0 0.0 0.0 0.0
0.0 0.0 0.0 0.0 0.0 0.0 0.0 0.0

tfl.pseudo_qconst27 i1 [1, 3, 1, 40] scale=0.101960786 zero_point=-128
00000000: 8080 8080 8080 8080 8080 8080 8080 8080
00000010: 8080 8080 8080 8080 8080 8080 8080 8080
00000020: 8080 8080 8080 8080 8080 8080 8080 8080
00000030: 8080 8080 8080 8080 8080 8080 8080 8080
00000040: 8080 8080 8080 8080 8080 8080 8080 8080
00000050: 8080 8080 8080 8080 8080 8080 8080 8080
00000060: 8080 8080 8080 8080 8080 8080 8080 8080
00000070: 8080 8080 8080 8080
0.0 0.0 0.0 0.0 0.0 0.0 0.0 0.0
0.0 0.0 0.0 0.0 0.0 0.0 0.0 0.0
0.0 0.0 0.0 0.0 0.0 0.0 0.0 0.0
0.0 0.0 0.0 0.0 0.0 0.0 0.0 0.0
0.0 0.0 0.0 0.0 0.0 0.0 0.0 0.0
0.0 0.0 0.0 0.0 0.0 0.0 0.0 0.0
0.0 0.0 0.0 0.0 0.0 0.0 0.0 0.0
0.0 0.0 0.0 0.0 0.0 0.0 0.0 0.0
0.0 0.0 0.0 0.0 0.0 0.0 0.0 0.0
0.0 0.0 0.0 0.0 0.0 0.0 0.0 0.0
0.0 0.0 0.0 0.0 0.0 0.0 0.0 0.0
0.0 0.0 0.0 0.0 0.0 0.0 0.0 0.0
0.0 0.0 0.0 0.0 0.0 0.0 0.0 0.0
0.0 0.0 0.0 0.0 0.0 0.0 0.0 0.0
0.0 0.0 0.0 0.0 0.0 0.0 0.0 0.0

tfl.pseudo_qconst28 i1 [1, 36, 1, 64] scale=0.019544123 zero_point=-128
00000000: 8080 8080 8080 8080 8080 8080 8080 8080
00000010: 8080 8080 8080 8080 8080 8080 8080 8080
00000020: 8080 8080 8080 8080 8080 8080 8080 8080
00000030: 8080 8080 8080 8080 8080 8080 8080 8080
00000040: 8080 8080 8080 8080 8080 8080 8080 8080
00000050: 8080 8080 8080 8080 8080 8080 8080 8080
00000060: 8080 8080 8080 8080 8080 8080 8080 8080
00000070: 8080 8080 8080 8080 8080 8080 8080 8080
00000080: 8080 8080 8080 8080 8080 8080 8080 8080
00000090: 8080 8080 8080 8080 8080 8080 8080 8080
000000a0: 8080 8080 8080 8080 8080 8080 8080 8080
000000b0: 8080 8080 8080 8080 8080 8080 8080 8080
000000c0: 8080 8080 8080 8080 8080 8080 8080 8080
000000d0: 8080 8080 8080 8080 8080 8080 8080 8080
000000e0: 8080 8080 8080 8080 8080 8080 8080 8080
000000f0: 8080 8080 8080 8080 8080 8080 8080 8080
0.0 0.0 0.0 0.0 0.0 0.0 0.0 0.0
0.0 0.0 0.0 0.0 0.0 0.0 0.0 0.0
0.0 0.0 0.0 0.0 0.0 0.0 0.0 0.0
0.0 0.0 0.0 0.0 0.0 0.0 0.0 0.0
0.0 0.0 0.0 0.0 0.0 0.0 0.0 0.0
0.0 0.0 0.0 0.0 0.0 0.0 0.0 0.0
0.0 0.0 0.0 0.0 0.0 0.0 0.0 0.0
0.0 0.0 0.0 0.0 0.0 0.0 0.0 0.0
0.0 0.0 0.0 0.0 0.0 0.0 0.0 0.0
0.0 0.0 0.0 0.0 0.0 0.0 0.0 0.0
0.0 0.0 0.0 0.0 0.0 0.0 0.0 0.0
0.0 0.0 0.0 0.0 0.0 0.0 0.0 0.0
0.0 0.0 0.0 0.0 0.0 0.0 0.0 0.0
0.0 0.0 0.0 0.0 0.0 0.0 0.0 0.0
0.0 0.0 0.0 0.0 0.0 0.0 0.0 0.0
0.0 0.0 0.0 0.0 0.0 0.0 0.0 0.0
0.0 0.0 0.0 0.0 0.0 0.0 0.0 0.0
0.0 0.0 0.0 0.0 0.0 0.0 0.0 0.0
0.0 0.0 0.0 0.0 0.0 0.0 0.0 0.0
0.0 0.0 0.0 0.0 0.0 0.0 0.0 0.0
0.0 0.0 0.0 0.0 0.0 0.0 0.0 0.0
0.0 0.0 0.0 0.0 0.0 0.0 0.0 0.0
0.0 0.0 0.0 0.0 0.0 0.0 0.0 0.0
0.0 0.0 0.0 0.0 0.0 0.0 0.0 0.0
0.0 0.0 0.0 0.0 0.0 0.0 0.0 0.0
0.0 0.0 0.0 0.0 0.0 0.0 0.0 0.0
0.0 0.0 0.0 0.0 0.0 0.0 0.0 0.0
0.0 0.0 0.0 0.0 0.0 0.0 0.0 0.0
0.0 0.0 0.0 0.0 0.0 0.0 0.0 0.0
0.0 0.0 0.0 0.0 0.0 0.0 0.0 0.0
0.0 0.0 0.0 0.0 0.0 0.0 0.0 0.0
0.0 0.0 0.0 0.0 0.0 0.0 0.0 0.0

tfl.pseudo_qconst29 i1 [1, 22, 1, 64] scale=0.030123651 zero_point=-128
00000000: 8080 8080 8080 8080 8080 8080 8080 8080
00000010: 8080 8080 8080 8080 8080 8080 8080 8080
00000020: 8080 8080 8080 8080 8080 8080 8080 8080
00000030: 8080 8080 8080 8080 8080 8080 8080 8080
00000040: 8080 8080 8080 8080 8080 8080 8080 8080
00000050: 8080 8080 8080 8080 8080 8080 8080 8080
00000060: 8080 8080 8080 8080 8080 8080 8080 8080
00000070: 8080 8080 8080 8080 8080 8080 8080 8080
00000080: 8080 8080 8080 8080 8080 8080 8080 8080
00000090: 8080 8080 8080 8080 8080 8080 8080 8080
000000a0: 8080 8080 8080 8080 8080 8080 8080 8080
000000b0: 8080 8080 8080 8080 8080 8080 8080 8080
000000c0: 8080 8080 8080 8080 8080 8080 8080 8080
000000d0: 8080 8080 8080 8080 8080 8080 8080 8080
000000e0: 8080 8080 8080 8080 8080 8080 8080 8080
000000f0: 8080 8080 8080 8080 8080 8080 8080 8080
0.0 0.0 0.0 0.0 0.0 0.0 0.0 0.0
0.0 0.0 0.0 0.0 0.0 0.0 0.0 0.0
0.0 0.0 0.0 0.0 0.0 0.0 0.0 0.0
0.0 0.0 0.0 0.0 0.0 0.0 0.0 0.0
0.0 0.0 0.0 0.0 0.0 0.0 0.0 0.0
0.0 0.0 0.0 0.0 0.0 0.0 0.0 0.0
0.0 0.0 0.0 0.0 0.0 0.0 0.0 0.0
0.0 0.0 0.0 0.0 0.0 0.0 0.0 0.0
0.0 0.0 0.0 0.0 0.0 0.0 0.0 0.0
0.0 0.0 0.0 0.0 0.0 0.0 0.0 0.0
0.0 0.0 0.0 0.0 0.0 0.0 0.0 0.0
0.0 0.0 0.0 0.0 0.0 0.0 0.0 0.0
0.0 0.0 0.0 0.0 0.0 0.0 0.0 0.0
0.0 0.0 0.0 0.0 0.0 0.0 0.0 0.0
0.0 0.0 0.0 0.0 0.0 0.0 0.0 0.0
0.0 0.0 0.0 0.0 0.0 0.0 0.0 0.0
0.0 0.0 0.0 0.0 0.0 0.0 0.0 0.0
0.0 0.0 0.0 0.0 0.0 0.0 0.0 0.0
0.0 0.0 0.0 0.0 0.0 0.0 0.0 0.0
0.0 0.0 0.0 0.0 0.0 0.0 0.0 0.0
0.0 0.0 0.0 0.0 0.0 0.0 0.0 0.0
0.0 0.0 0.0 0.0 0.0 0.0 0.0 0.0
0.0 0.0 0.0 0.0 0.0 0.0 0.0 0.0
0.0 0.0 0.0 0.0 0.0 0.0 0.0 0.0
0.0 0.0 0.0 0.0 0.0 0.0 0.0 0.0
0.0 0.0 0.0 0.0 0.0 0.0 0.0 0.0
0.0 0.0 0.0 0.0 0.0 0.0 0.0 0.0
0.0 0.0 0.0 0.0 0.0 0.0 0.0 0.0
0.0 0.0 0.0 0.0 0.0 0.0 0.0 0.0
0.0 0.0 0.0 0.0 0.0 0.0 0.0 0.0
0.0 0.0 0.0 0.0 0.0 0.0 0.0 0.0
0.0 0.0 0.0 0.0 0.0 0.0 0.0 0.0
