old_lucy.tflite (tflite, 63520 bytes, 18 tensors)

tfl.pseudo_qconst1 i1 [1, 2368] scale=0.004825399 zero_point=0
000000 da fd ef ff f6 10 fd 07 e6 df d8 de 07 ff f6 e2
       -0.18336515 -0.014476197 -0.08203178 -0.004825399 -0.048253987 0.07720638 -0.014476197 0.033777792 -0.12546037 -0.15923816 -0.19301595 -0.16406356 0.033777792 -0.004825399 -0.048253987 -0.14476196
000010 f7 f4 e5 05 f4 f0 05 f5 f6 ef fc d8 f2 17 da f0
       -0.04342859 -0.057904787 -0.13028577 0.024126993 -0.057904787 -0.07720638 0.024126993 -0.053079385 -0.048253987 -0.08203178 -0.019301595 -0.19301595 -0.067555584 0.11098417 -0.18336515 -0.07720638
000020 09 07 20 f7 f8 fb f4 b9 0a ed 00 df 08 05 d6 f0
       0.04342859 0.033777792 0.15441276 -0.04342859 -0.03860319 -0.024126993 -0.057904787 -0.34260333 0.048253987 -0.091682576 0.0 -0.15923816 0.03860319 0.024126993 -0.20266674 -0.07720638
000030 ef f2 fd ed f7 fa e1 f0 f4 f8 05 fe 03 ef e8 f8
       -0.08203178 -0.067555584 -0.014476197 -0.091682576 -0.04342859 -0.028952394 -0.14958736 -0.07720638 -0.057904787 -0.03860319 0.024126993 -0.009650798 0.014476197 -0.08203178 -0.115809575 -0.03860319
000040 fb f8 08 0c f9 fe f7 fc e0 f1 e2 e9 fb 09 07 fb
       -0.024126993 -0.03860319 0.03860319 0.057904787 -0.033777792 -0.009650798 -0.04342859 -0.019301595 -0.15441276 -0.07238098 -0.14476196 -0.11098417 -0.024126993 0.04342859 0.033777792 -0.024126993
000050 ee 07 f0 fa 01 fb 02 fc fc fa 09 ee 06 12 e3 fd
       -0.08685718 0.033777792 -0.07720638 -0.028952394 0.004825399 -0.024126993 0.009650798 -0.019301595 -0.019301595 -0.028952394 0.04342859 -0.08685718 0.028952394 0.08685718 -0.13993657 -0.014476197
000060 f5 10 15 0d f7 f6 fd c7 0f ff f6 ea 01 0f e3 e8
       -0.053079385 0.07720638 0.10133337 0.062730186 -0.04342859 -0.048253987 -0.014476197 -0.27504772 0.07238098 -0.004825399 -0.048253987 -0.10615877 0.004825399 0.07238098 -0.13993657 -0.115809575
000070 eb f4 03 e8 10 fe fc 05 fe 04 0d 02 fe f5 ed f2
       -0.10133337 -0.057904787 0.014476197 -0.115809575 0.07720638 -0.009650798 -0.019301595 0.024126993 -0.009650798 0.019301595 0.062730186 0.009650798 -0.009650798 -0.053079385 -0.091682576 -0.067555584
000080 fb f9 04 0f 04 f8 05 05 eb ef e8 f3 ef 08 01 0f
       -0.024126993 -0.033777792 0.019301595 0.07238098 0.019301595 -0.03860319 0.024126993 0.024126993 -0.10133337 -0.08203178 -0.115809575 -0.062730186 -0.08203178 0.03860319 0.004825399 0.07238098
000090 fa fa ee 04 00 eb 00 fa 02 f9 08 e7 0a 01 f3 02
       -0.028952394 -0.028952394 -0.08685718 0.019301595 0.0 -0.10133337 0.0 -0.028952394 0.009650798 -0.033777792 0.03860319 -0.12063497 0.048253987 0.004825399 -0.062730186 0.009650798
0000a0 00 04 18 06 02 f5 01 dd 06 fd 02 fc 00 05 e5 fa
       0.0 0.019301595 0.115809575 0.028952394 0.009650798 -0.053079385 0.004825399 -0.16888896 0.028952394 -0.014476197 0.009650798 -0.019301595 0.0 0.024126993 -0.13028577 -0.028952394
0000b0 02 f6 01 f2 12 f3 0d 02 f4 ff 05 08 03 ef f7 f7
       0.009650798 -0.048253987 0.004825399 -0.067555584 0.08685718 -0.062730186 0.062730186 0.009650798 -0.057904787 -0.004825399 0.024126993 0.03860319 0.014476197 -0.08203178 -0.04342859 -0.04342859
0000c0 fc 03 01 0a fb f5 01 10 04 e4 de 09 f3 fa 09 00
       -0.019301595 0.014476197 0.004825399 0.048253987 -0.024126993 -0.053079385 0.004825399 0.07720638 0.019301595 -0.13511117 -0.16406356 0.04342859 -0.062730186 -0.028952394 0.04342859 0.0
0000d0 06 06 f6 fa 10 05 02 ec fa f8 01 f2 08 11 df 0a
       0.028952394 0.028952394 -0.048253987 -0.028952394 0.07720638 0.024126993 0.009650798 -0.096507974 -0.028952394 -0.03860319 0.004825399 -0.067555584 0.03860319 0.08203178 -0.15923816 0.048253987
0000e0 f3 10 19 05 0b f4 05 e8 fd ff 00 03 fa ff f2 03
       -0.062730186 0.07720638 0.12063497 0.024126993 0.053079385 -0.057904787 0.024126993 -0.115809575 -0.014476197 -0.004825399 0.0 0.014476197 -0.028952394 -0.004825399 -0.067555584 0.014476197
0000f0 fe fb fd 02 0e f9 06 07 ff f2 fd f6 fd f0 01 ef
       -0.009650798 -0.024126993 -0.014476197 0.009650798 0.067555584 -0.033777792 0.028952394 0.033777792 -0.004825399 -0.067555584 -0.014476197 -0.048253987 -0.014476197 -0.07720638 0.004825399 -0.08203178

tfl.pseudo_qconst3 i1 [64, 1, 1, 64]
000000 44 f9 0e eb ae 81 f7 42 f7 c3 26 ea e1 c5 0b 2b
       68 -7 14 -21 -82 -127 -9 66 -9 -61 38 -22 -31 -59 11 43
000010 3d e7 6b 1d 36 24 f3 fa db 2a d6 da 0d 1c 1e aa
       61 -25 107 29 54 36 -13 -6 -37 42 -42 -38 13 28 30 -86
000020 b5 e6 fe c3 0f b4 dc 01 d7 f7 57 11 e5 f3 55 3f
       -75 -26 -2 -61 15 -76 -36 1 -41 -9 87 17 -27 -13 85 63
000030 25 5c e3 bb 28 0d 1b ca 38 39 db 21 ef 33 f8 dd
       37 92 -29 -69 40 13 27 -54 56 57 -37 33 -17 51 -8 -35
000040 37 a2 e8 06 ff 2f 59 eb 4e 2e ab a7 ca 1a 1b 03
       55 -94 -24 6 -1 47 89 -21 78 46 -85 -89 -54 26 27 3
000050 e2 38 01 02 82 25 e4 df 7f 68 00 d5 98 f8 a1 67
       -30 56 1 2 -126 37 -28 -33 127 104 0 -43 -104 -8 -95 103
000060 ec e3 5a 3d 2e e6 0d 3f 57 01 f0 3f eb 4d d0 b9
       -20 -29 90 61 46 -26 13 63 87 1 -16 63 -21 77 -48 -71
000070 46 54 7d fc bb e6 52 f3 e5 66 3e b3 15 ce f2 c6
       70 84 125 -4 -69 -26 82 -13 -27 102 62 -77 21 -50 -14 -58
000080 3a f0 c9 41 2a ff ed 1a 17 12 98 31 f3 e4 4e bf
       58 -16 -55 65 42 -1 -19 26 23 18 -104 49 -13 -28 78 -65
000090 39 60 0c 29 26 f8 06 f0 d1 54 fd d8 9a 37 e3 55
       57 96 12 41 38 -8 6 -16 -47 84 -3 -40 -102 55 -29 85
0000a0 d2 fc 2c ca fa 3a d6 ef fe 19 e5 33 4f 1f 11 e6
       -46 -4 44 -54 -6 58 -42 -17 -2 25 -27 51 79 31 17 -26
0000b0 ae d9 45 58 e5 28 73 86 55 64 7f 10 a8 d1 1b 1a
       -82 -39 69 88 -27 40 115 -122 85 100 127 16 -88 -47 27 26
0000c0 dd 51 08 3a 2a 5d cd 76 e7 d9 81 4b bd f8 48 15
       -35 81 8 58 42 93 -51 118 -25 -39 -127 75 -67 -8 72 21
0000d0 37 d7 f7 bd f2 0a 2f 08 c1 f0 d6 19 ac fd 23 1c
       55 -41 -9 -67 -14 10 47 8 -63 -16 -42 25 -84 -3 35 28
0000e0 56 08 51 b2 02 a5 34 2f 0d e5 6b f2 f6 35 13 9e
       86 8 81 -78 2 -91 52 47 13 -27 107 -14 -10 53 19 -98
0000f0 e7 8c f1 f8 aa 94 3a e7 9f c9 f7 1b 2a 48 41 fb
       -25 -116 -15 -8 -86 -108 58 -25 -97 -55 -9 27 42 72 65 -5

tfl.pseudo_qconst5 i1 [1, 23, 1, 64]
000000 d4 7f 8a 81 eb 09 0e 0f 9d 9c 50 7c 45 ec 46 8a
       -44 127 -118 -127 -21 9 14 15 -99 -100 80 124 69 -20 70 -118
000010 8f 0d fd d7 f0 c2 c7 28 82 81 05 81 5e 90 81 b4
       -113 13 -3 -41 -16 -62 -57 40 -126 -127 5 -127 94 -112 -127 -76
000020 b7 e6 4b 1e 5e 1a 5a 7f a9 e2 2b 99 1c f4 42 b0
       -73 -26 75 30 94 26 90 127 -87 -30 43 -103 28 -12 66 -80
000030 53 2f bf f0 37 fc 8f 53 29 0a 7f 3e b5 7b 38 64
       83 47 -65 -16 55 -4 -113 83 41 10 127 62 -75 123 56 100
000040 ce 3e ed ba b9 1e 17 17 31 a9 44 6f 18 19 07 c7
       -50 62 -19 -70 -71 30 23 23 49 -87 68 111 24 25 7 -57
000050 81 f2 00 ea 23 d8 ee d5 9f 88 d7 a8 66 b0 a2 fc
       -127 -14 0 -22 35 -40 -18 -43 -97 -120 -41 -88 102 -80 -94 -4
000060 d1 03 47 20 39 01 59 17 be f0 40 a6 35 93 7a b6
       -47 3 71 32 57 1 89 23 -66 -16 64 -90 53 -109 122 -74
000070 39 16 94 e6 16 e0 81 37 4e 03 6c 28 9a 7e 58 73
       57 22 -108 -26 22 -32 -127 55 78 3 108 40 -102 126 88 115
000080 d1 48 f6 e3 fe 0b 12 28 ae 81 2f dd 2b ca 24 d8
       -47 72 -10 -29 -2 11 18 40 -82 -127 47 -35 43 -54 36 -40
000090 82 c3 05 3c 2d b1 f6 fc 81 af f0 13 5e aa e0 bc
       -126 -61 5 60 45 -79 -10 -4 -127 -81 -16 19 94 -86 -32 -68
0000a0 d7 fe 70 26 47 1b 36 29 bc cb 5b ae ec 8e 3f e5
       -41 -2 112 38 71 27 54 41 -68 -53 91 -82 -20 -114 63 -27
0000b0 40 06 81 ce 38 d5 97 1c 43 25 65 15 81 7f 76 62
       64 6 -127 -50 56 -43 -105 28 67 37 101 21 -127 127 118 98
0000c0 e0 20 11 e4 d2 18 c9 27 d7 b1 0d 15 1e b4 03 02
       -32 32 17 -28 -46 24 -55 39 -41 -79 13 21 30 -76 3 2
0000d0 c1 cf 10 70 3f ad f8 10 b9 cc e9 05 4a b0 ef e9
       -63 -49 16 112 63 -83 -8 16 -71 -52 -23 5 74 -80 -17 -23
0000e0 c9 10 0e 2d ee 15 3b 16 eb f2 7d d1 cf a8 65 f7
       -55 16 14 45 -18 21 59 22 -21 -14 125 -47 -49 -88 101 -9
0000f0 bf 03 ad ce 1b d2 b1 08 59 f6 61 f3 9b 62 7f 49
       -65 3 -83 -50 27 -46 -79 8 89 -10 97 -13 -101 98 127 73

tfl.pseudo_qconst7 i1 [64, 1, 1, 64]
000000 23 81 da c9 b0 29 ff 23 2b df d6 2d 1a df 07 43
       35 -127 -38 -55 -80 41 -1 35 43 -33 -42 45 26 -33 7 67
000010 1e 22 ed d3 f3 eb 23 db db e2 5b f2 2e 3b 0f 54
       30 34 -19 -45 -13 -21 35 -37 -37 -30 91 -14 46 59 15 84
000020 1f 27 21 2d ef 35 28 21 04 fe fb ed 07 ee 3e 1a
       31 39 33 45 -17 53 40 33 4 -2 -5 -19 7 -18 62 26
000030 1c c3 1a fb fc 14 2a 28 df f2 2b 03 f5 1b fc c0
       28 -61 26 -5 -4 20 42 40 -33 -14 43 3 -11 27 -4 -64
000040 df 2b 43 06 fd 27 39 25 f4 e4 ea 01 d1 13 d4 47
       -33 43 67 6 -3 39 57 37 -12 -28 -22 1 -47 19 -44 71
000050 e0 e4 ca 2e f6 eb b3 19 01 21 18 19 2e f6 23 27
       -32 -28 -54 46 -10 -21 -77 25 1 33 24 25 46 -10 35 39
000060 bb 29 1c d7 dd 3a db f3 2b b4 05 a0 81 e3 0c db
       -69 41 28 -41 -35 58 -37 -13 43 -76 5 -96 -127 -29 12 -37
000070 04 b1 97 21 f1 c2 d2 1a d3 e3 b5 e6 41 dc c5 fd
       4 -79 -105 33 -15 -62 -46 26 -45 -29 -75 -26 65 -36 -59 -3
000080 57 12 b8 ed 08 19 25 35 37 cd 1d 24 d1 b3 bd ce
       87 18 -72 -19 8 25 37 53 55 -51 29 36 -47 -77 -67 -50
000090 3d 8b 2b 1a 20 38 8f bd b8 4f 1e 29 a4 d8 e3 52
       61 -117 43 26 32 56 -113 -67 -72 79 30 41 -92 -40 -29 82
0000a0 46 36 b0 ec b3 07 2b 01 cc e3 67 db 2e 02 fa ff
       70 54 -80 -20 -77 7 43 1 -52 -29 103 -37 46 2 -6 -1
0000b0 ee 57 20 66 40 8e dc 34 38 0b a2 c2 40 49 81 f5
       -18 87 32 102 64 -114 -36 52 56 11 -94 -62 64 73 -127 -11
0000c0 eb 44 e0 1c f4 c7 b7 50 98 f2 05 e6 81 32 22 08
       -21 68 -32 28 -12 -57 -73 80 -104 -14 5 -26 -127 50 34 8
0000d0 bf f7 fa f0 b6 08 52 28 2c 19 59 a5 02 c4 37 12
       -65 -9 -6 -16 -74 8 82 40 44 25 89 -91 2 -60 55 18
0000e0 fd 2c a5 00 b2 09 26 e8 2e 48 bf b5 c5 4a 28 0b
       -3 44 -91 0 -78 9 38 -24 46 72 -65 -75 -59 74 40 11
0000f0 a7 ca 14 2a e3 f8 e7 c2 ce db 27 01 da 64 1f e1
       -89 -54 20 42 -29 -8 -25 -62 -50 -37 39 1 -38 100 31 -31

tfl.pseudo_qconst9 i1 [1, 15, 1, 32]
000000 32 46 7f e1 b4 4b 18 7f d8 b0 97 81 81 41 98 f3
       50 70 127 -31 -76 75 24 127 -40 -80 -105 -127 -127 65 -104 -13
000010 e9 a3 7f 07 94 7f 3f 59 63 81 52 fd e5 45 e7 9c
       -23 -93 127 7 -108 127 63 89 99 -127 82 -3 -27 69 -25 -100
000020 17 b2 0c e8 81 7f 28 6d 4d f1 9d aa 87 35 bd 75
       23 -78 12 -24 -127 127 40 109 77 -15 -99 -86 -121 53 -67 117
000030 0b 99 75 1c e6 4b 66 48 4f b4 07 86 7f e2 2d 81
       11 -103 117 28 -26 75 102 72 79 -76 7 -122 127 -30 45 -127
000040 17 a2 03 22 8d 0d 61 38 d5 fc b4 a9 c6 31 08 54
       23 -94 3 34 -115 13 97 56 -43 -4 -76 -87 -58 49 8 84
000050 06 db 42 ef bf 42 4d fe 3f c6 66 40 4f cb 25 1e
       6 -37 66 -17 -65 66 77 -2 63 -58 102 64 79 -53 37 30
000060 ec de e3 39 86 eb 03 3e c3 f5 8e cb c0 47 41 03
       -20 -34 -29 57 -122 -21 3 62 -61 -11 -114 -53 -64 71 65 3
000070 d8 da 53 0f 35 3b 03 f1 01 d2 5f 05 11 04 47 de
       -40 -38 83 15 53 59 3 -15 1 -46 95 5 17 4 71 -34
000080 ee e2 0c 24 96 e6 20 53 2f 22 87 e9 b2 43 0d e1
       -18 -30 12 36 -106 -26 32 83 47 34 -121 -23 -78 67 13 -31
000090 18 f7 17 f0 ed 11 f1 23 4d bc 5a f0 df 14 47 e2
       24 -9 23 -16 -19 17 -15 35 77 -68 90 -16 -33 20 71 -30
0000a0 bc 3b f7 1a b1 e8 50 1b 2a fe 81 dc af f5 b1 2d
       -68 59 -9 26 -79 -24 80 27 42 -2 -127 -36 -81 -11 -79 45
0000b0 0a fb 19 d7 d7 42 3d f4 3d f3 42 f6 83 15 24 e8
       10 -5 25 -41 -41 66 61 -12 61 -13 66 -10 -125 21 36 -24
0000c0 06 53 d1 21 a1 fa 3e 41 81 b5 b2 c5 c1 d0 b9 2b
       6 83 -47 33 -95 -6 62 65 -127 -75 -78 -59 -63 -48 -71 43
0000d0 17 d8 e9 ef 32 28 e4 f4 17 e2 13 a1 d9 d3 5b ee
       23 -40 -23 -17 50 40 -28 -12 23 -30 19 -95 -39 -45 91 -18
0000e0 d4 7f be 20 ac 93 35 02 0f 01 ce fe e6 eb b2 d4
       -44 127 -66 32 -84 -109 53 2 15 1 -50 -2 -26 -21 -78 -44
0000f0 d8 32 ae 0c e8 18 cf 0d 39 d7 1c d4 2a 26 08 f3
       -40 50 -82 12 -24 24 -49 13 57 -41 28 -44 42 38 8 -13

tfl.pseudo_qconst11 i1 [1, 9, 1, 32]
000000 40 00 81 4b d3 8e 81 51 16 5f b7 81 bf b6 6a 26
       64 0 -127 75 -45 -114 -127 81 22 95 -73 -127 -65 -74 106 38
000010 b1 87 03 be 8f d0 41 c5 81 37 0c d9 7f 03 08 2d
       -79 -121 3 -66 -113 -48 65 -59 -127 55 12 -39 127 3 8 45
000020 58 45 d5 59 b9 81 d2 48 4c 68 09 35 cf 25 5e df
       88 69 -43 89 -71 -127 -46 72 76 104 9 53 -49 37 94 -33
000030 33 9f 8f d8 01 de a1 b5 82 6a 1e 6f 14 1d c2 1e
       51 -97 -113 -40 1 -34 -95 -75 -126 106 30 111 20 29 -62 30
000040 52 06 66 0a 2e 8d 98 46 fb 40 fc 8c f4 7f 1c 05
       82 6 102 10 46 -115 -104 70 -5 64 -4 -116 -12 127 28 5
000050 4a ba 9a 21 33 f0 f7 97 a9 6d 09 eb 07 f2 29 fb
       74 -70 -102 33 51 -16 -9 -105 -87 109 9 -21 7 -14 41 -5
000060 5b 35 23 06 23 ad ec 52 fc 1a ca d8 a3 14 0e e5
       91 53 35 6 35 -83 -20 82 -4 26 -54 -40 -93 20 14 -27
000070 5d f7 d1 23 23 f6 e9 81 d5 22 2a 7f 7c d9 c1 dc
       93 -9 -47 35 35 -10 -23 -127 -43 34 42 127 124 -39 -63 -36
000080 32 43 75 fb 0f bc ea ff 24 51 f0 2f a5 ec 0f ae
       50 67 117 -5 15 -68 -22 -1 36 81 -16 47 -91 -20 15 -82
000090 7f 49 b4 62 20 bf 87 cc 32 21 29 7c de 03 71 ba
       127 73 -76 98 32 -65 -121 -52 50 33 41 124 -34 3 113 -70
0000a0 2b 31 dc df 52 82 f6 f6 c9 37 27 9e df f1 7f 04
       43 49 -36 -33 82 -126 -10 -10 -55 55 39 -98 -33 -15 127 4
0000b0 3f 6d 1e 3a b3 a8 35 07 f2 65 42 ca a9 2e e9 ad
       63 109 30 58 -77 -88 53 7 -14 101 66 -54 -87 46 -23 -83
0000c0 f5 3d f9 1e 26 f8 38 3c bc 72 50 8e 8e cc f5 e1
       -11 61 -7 30 38 -8 56 60 -68 114 80 -114 -114 -52 -11 -31
0000d0 c2 30 5b 47 39 d7 ce c4 57 7f 4d e5 f4 e7 27 ac
       -62 48 91 71 57 -41 -50 -60 87 127 77 -27 -12 -25 39 -84
0000e0 64 2d dc e2 66 a1 e2 7f 9b 7f 7f 9b ba 09 1e 1f
       100 45 -36 -30 102 -95 -30 127 -101 127 127 -101 -70 9 30 31
0000f0 81 81 73 76 7f 81 e0 1a 52 63 25 d2 c9 03 7f d8
       -127 -127 115 118 127 -127 -32 26 82 99 37 -46 -55 3 127 -40

tfl.pseudo_qconst13 i1 [64, 1, 1, 64]
000000 05 bd e8 b9 51 30 29 17 15 38 32 f4 07 c6 32 2d
       5 -67 -24 -71 81 48 41 23 21 56 50 -12 7 -58 50 45
000010 22 13 17 cc ef f5 35 f7 ca 14 b4 2b db 6d cd 17
       34 19 23 -52 -17 -11 53 -9 -54 20 -76 43 -37 109 -51 23
000020 17 45 d8 f1 05 24 c8 c9 2f 39 2f 06 1f d7 eb 1d
       23 69 -40 -15 5 36 -56 -55 47 57 47 6 31 -41 -21 29
000030 f0 0a de 3e dc 0d 02 c4 24 e1 0c e7 ff bf 7f 20
       -16 10 -34 62 -36 13 2 -60 36 -31 12 -25 -1 -65 127 32
000040 56 be e6 fb 63 bf a9 46 d4 d7 13 a6 ea 0c 00 ae
       86 -66 -26 -5 99 -65 -87 70 -44 -41 19 -90 -22 12 0 -82
000050 a0 15 7f 37 ed 14 ff e3 4c 19 b1 1b 58 e6 c7 35
       -96 21 127 55 -19 20 -1 -29 76 25 -79 27 88 -26 -57 53
000060 2a 2f ff dd bc ec 19 3d 05 a8 ab 3c 1f e2 f2 f7
       42 47 -1 -35 -68 -20 25 61 5 -88 -85 60 31 -30 -14 -9
000070 10 26 10 c4 71 4c 29 36 31 06 a9 6e ed 2a 2e fd
       16 38 16 -60 113 76 41 54 49 6 -87 110 -19 42 46 -3
000080 1c 04 9d 4f e4 14 fb a3 cf 3b f3 c2 39 71 18 3a
       28 4 -99 79 -28 20 -5 -93 -49 59 -13 -62 57 113 24 58
000090 e5 15 eb b0 29 23 bc 32 38 c6 b4 ed 17 b8 ec e3
       -27 21 -21 -80 41 35 -68 50 56 -58 -76 -19 23 -72 -20 -29
0000a0 53 40 30 4c d7 71 17 14 d1 81 d1 1a ff f9 f4 fd
       83 64 48 76 -41 113 23 20 -47 -127 -47 26 -1 -7 -12 -3
0000b0 ed 58 a5 bf 5b 54 f6 36 eb f1 ff 3f eb 08 42 36
       -19 88 -91 -65 91 84 -10 54 -21 -15 -1 63 -21 8 66 54
0000c0 02 3f f9 d6 ff 0a 18 f5 f1 1e f6 41 0e 0b f4 10
       2 63 -7 -42 -1 10 24 -11 -15 30 -10 65 14 11 -12 16
0000d0 36 e0 e1 f2 f8 f4 36 34 ba e3 dd da c4 de fe 03
       54 -32 -31 -14 -8 -12 54 52 -70 -29 -35 -38 -60 -34 -2 3
0000e0 17 cd 26 60 05 14 bc d5 32 54 0c 43 06 d8 f9 05
       23 -51 38 96 5 20 -68 -43 50 84 12 67 6 -40 -7 5
0000f0 e4 f0 bc d9 a4 44 3b 16 bc db df e5 f0 2e 7f e6
       -28 -16 -68 -39 -92 68 59 22 -68 -37 -33 -27 -16 46 127 -26

tfl.pseudo_qconst15 i1 [1, 11, 1, 32]
000000 fb 49 dc 07 ff 2d 7f 02 25 db ef 81 97 d9 1c 87
       -5 73 -36 7 -1 45 127 2 37 -37 -17 -127 -105 -39 28 -121
000010 65 81 5e 7f d5 e8 7f 9f 1e c4 81 f1 33 77 12 e7
       101 -127 94 127 -43 -24 127 -97 30 -60 -127 -15 51 119 18 -25
000020 af 3c 4f 1e e2 c3 5d 9b 12 0a c2 b6 a1 42 60 ef
       -81 60 79 30 -30 -61 93 -101 18 10 -62 -74 -95 66 96 -17
000030 13 c3 f4 53 00 cf 48 b2 28 95 8e ef 7e 7f 08 ec
       19 -61 -12 83 0 -49 72 -78 40 -107 -114 -17 126 127 8 -20
000040 c3 03 69 25 e9 02 2b 81 6a fe c3 e3 f8 39 c7 92
       -61 3 105 37 -23 2 43 -127 106 -2 -61 -29 -8 57 -57 -110
000050 08 10 54 52 37 31 2d f8 1f 81 2c eb 32 36 da c1
       8 16 84 82 55 49 45 -8 31 -127 44 -21 50 54 -38 -63
000060 c8 fb 38 fa d9 0e 4b af 2e 03 9f 14 7f 33 07 81
       -56 -5 56 -6 -39 14 75 -81 46 3 -97 20 127 51 7 -127
000070 c9 17 4d 51 4c 40 16 4f 10 30 3d e2 51 59 ec dd
       -55 23 77 81 76 64 22 79 16 48 61 -30 81 89 -20 -35
000080 22 61 fb 05 c5 7f 23 d9 f5 fb fe f9 fe f8 81 8c
       34 97 -5 5 -59 127 35 -39 -11 -5 -2 -7 -2 -8 -127 -116
000090 12 4d 21 52 49 63 15 35 4f 56 6f da 05 43 42 c3
       18 77 33 82 73 99 21 53 79 86 111 -38 5 67 66 -61
0000a0 ec 7e c8 ae a1 62 ef e4 33 df b5 44 04 30 ea 9f
       -20 126 -56 -82 -95 98 -17 -28 51 -33 -75 68 4 48 -22 -97
0000b0 c5 57 2e 12 04 7f 2f de df e6 39 f1 1f 65 f2 21
       -59 87 46 18 4 127 47 -34 -33 -26 57 -15 31 101 -14 33
0000c0 26 21 a4 a2 81 79 22 0b 36 f7 cc 4e 4c 03 28 9a
       38 33 -92 -94 -127 121 34 11 54 -9 -52 78 76 3 40 -102
0000d0 c4 1a 5a 37 ac 11 03 44 e1 54 cf 0a c4 06 a2 51
       -60 26 90 55 -84 17 3 68 -31 84 -49 10 -60 6 -94 81
0000e0 3e fd 3a cd d8 20 45 e7 fc 28 1d 09 bc f5 e1 13
       62 -3 58 -51 -40 32 69 -25 -4 40 29 9 -68 -11 -31 19
0000f0 81 15 1d 27 b3 06 ec 56 e2 33 14 22 81 50 bf 7f
       -127 21 29 39 -77 6 -20 86 -30 51 20 34 -127 80 -65 127

tfl.pseudo_qconst17 i1 [1, 7, 1, 32]
000000 27 e7 af bb a7 1f d5 ff 36 c0 61 64 cf d7 81 e9
       39 -25 -81 -69 -89 31 -43 -1 54 -64 97 100 -49 -41 -127 -23
000010 e5 f9 da fd b5 18 34 f4 7f a9 a9 21 16 38 9a 2b
       -27 -7 -38 -3 -75 24 52 -12 127 -87 -87 33 22 56 -102 43
000020 44 0a 13 f0 81 d1 e7 d8 21 12 da 14 db 0f a1 ad
       68 10 19 -16 -127 -47 -25 -40 33 18 -38 20 -37 15 -95 -83
000030 91 d8 89 17 81 26 3c c4 08 81 3d f0 c6 5a 7f ed
       -111 -40 -119 23 -127 38 60 -60 8 -127 61 -16 -58 90 127 -19
000040 39 e1 6d 33 db f2 e8 db cd 6c 4a 10 e7 8b d7 e3
       57 -31 109 51 -37 -14 -24 -37 -51 108 74 16 -25 -117 -41 -29
000050 8f ea 81 8f 9b 1a 7f 9a 02 5f 7f c3 ea 3c 7a 15
       -113 -22 -127 -113 -101 26 127 -102 2 95 127 -61 -22 60 122 21
000060 ff c8 05 7f f1 81 4b 81 10 e8 81 7f f4 a1 05 ea
       -1 -56 5 127 -15 -127 75 -127 16 -24 -127 127 -12 -95 5 -22
000070 d2 ea e1 81 d5 19 5e 0c ae 97 2b 0d a1 ef e8 03
       -46 -22 -31 -127 -43 25 94 12 -82 -105 43 13 -95 -17 -24 3
000080 27 46 7f 5c fd b4 41 d9 b6 81 23 6b 1a a9 b3 81
       39 70 127 92 -3 -76 65 -39 -74 -127 35 107 26 -87 -77 -127
000090 81 ae e9 c1 20 14 fa 1d 11 3c d4 6d b6 f8 f7 d4
       -127 -82 -23 -63 32 20 -6 29 17 60 -44 109 -74 -8 -9 -44
0000a0 81 35 26 10 46 12 56 c5 4f 92 70 5b 95 e3 bd c1
       -127 53 38 16 70 18 86 -59 79 -110 112 91 -107 -29 -67 -63
0000b0 b8 b9 fe f5 24 c7 ae 25 57 fb d2 11 5b aa be ef
       -72 -71 -2 -11 36 -57 -82 37 87 -5 -46 17 91 -86 -66 -17
0000c0 b8 7f 4c aa 34 43 7f 66 81 2a 76 4e 81 81 1a b5
       -72 127 76 -86 52 67 127 102 -127 42 118 78 -127 -127 26 -75
0000d0 26 81 c0 3b 2e 81 a3 7f 6f d9 8c 7f 7f 81 92 81
       38 -127 -64 59 46 -127 -93 127 111 -39 -116 127 127 -127 -110 -127

tfl.pseudo_qconst19 i1 [64, 1, 1, 32]
000000 0c 4d 26 ed 13 db 08 1f c8 bb e4 03 ca a0 83 fe
       12 77 38 -19 19 -37 8 31 -56 -69 -28 3 -54 -96 -125 -2
000010 a1 0d d5 1b 04 3a 81 2b 5e e8 e9 3e a2 42 4c 6a
       -95 13 -43 27 4 58 -127 43 94 -24 -23 62 -94 66 76 106
000020 62 e6 eb c6 c8 0b 04 c1 28 47 84 31 ff 64 e2 0e
       98 -26 -21 -58 -56 11 4 -63 40 71 -124 49 -1 100 -30 14
000030 7f a7 c9 19 ac 12 00 46 fe 4c db db fe 27 cd 2a
       127 -89 -55 25 -84 18 0 70 -2 76 -37 -37 -2 39 -51 42
000040 93 f0 4c e5 32 18 b4 94 2a 1a 1d ff b8 f9 32 0a
       -109 -16 76 -27 50 24 -76 -108 42 26 29 -1 -72 -7 50 10
000050 d1 4f b7 ae 1e 05 6e 03 41 16 2f 07 81 3e 04 0b
       -47 79 -73 -82 30 5 110 3 65 22 47 7 -127 62 4 11
000060 81 05 13 f6 38 fc fb 15 12 03 fd 3e 17 2d 06 e6
       -127 5 19 -10 56 -4 -5 21 18 3 -3 62 23 45 6 -26
000070 36 2a f3 13 07 e9 de e6 d7 0c ff f3 3a f2 b3 ef
       54 42 -13 19 7 -23 -34 -26 -41 12 -1 -13 58 -14 -77 -17
000080 ca e2 e8 d7 f2 d9 f7 ef eb ef 12 e2 0e 1a 34 ed
       -54 -30 -24 -41 -14 -39 -9 -17 -21 -17 18 -30 14 26 52 -19
000090 19 d1 ee 02 f9 fe dd 04 14 22 c9 0f fc f3 81 ea
       25 -47 -18 2 -7 -2 -35 4 20 34 -55 15 -4 -13 -127 -22
0000a0 0d bd 16 f3 de 22 56 f9 fe f5 3f e3 42 2b 00 f1
       13 -67 22 -13 -34 34 86 -7 -2 -11 63 -29 66 43 0 -15
0000b0 35 16 4e 12 20 fc 25 b8 ac f4 28 0d 7f e7 b6 44
       53 22 78 18 32 -4 37 -72 -84 -12 40 13 127 -25 -74 68
0000c0 f5 03 41 fa dd 1c 03 fb 0f 33 0d 4c 22 ae ad 19
       -11 3 65 -6 -35 28 3 -5 15 51 13 76 34 -82 -83 25
0000d0 1a 37 f6 fa 02 a9 cf eb 73 30 28 c4 81 f2 6f 57
       26 55 -10 -6 2 -87 -49 -21 115 48 40 -60 -127 -14 111 87
0000e0 13 ea dd d0 f5 cf ed d9 13 c3 0e 00 01 06 31 fd
       19 -22 -35 -48 -11 -49 -19 -39 19 -61 14 0 1 6 49 -3
0000f0 d1 f9 f2 15 ef 35 14 2d 7f 27 18 21 16 fc 17 fc
       -47 -7 -14 21 -17 53 20 45 127 39 24 33 22 -4 23 -4

tfl.pseudo_qconst21 i1 [1, 5, 1, 32]
000000 65 26 a1 81 44 27 81 7f 29 3e 90 7f 7c c0 2d 6e
       101 38 -95 -127 68 39 -127 127 41 62 -112 127 124 -64 45 110
000010 13 f5 81 d2 f0 ab ea 4e b2 6c ad 47 52 5d d0 8c
       19 -11 -127 -46 -16 -85 -22 78 -78 108 -83 71 82 93 -48 -116
000020 81 15 1c 25 e2 41 b8 5f 29 89 e6 1a 6c 20 70 05
       -127 21 28 37 -30 65 -72 95 41 -119 -26 26 108 32 112 5
000030 04 fa b9 06 23 a6 81 f9 f4 7f c7 6c 4e 83 16 2d
       4 -6 -71 6 35 -90 -127 -7 -12 127 -57 108 78 -125 22 45
000040 ce a8 5d 3c 0d 02 fd 6f 7f 9c 6c 45 2f 35 7f e8
       -50 -88 93 60 13 2 -3 111 127 -100 108 69 47 53 127 -24
000050 9c af f8 27 ee 55 b4 2f 81 a6 1f 7f 1c 90 be fb
       -100 -81 -8 39 -18 85 -76 47 -127 -90 31 127 28 -112 -66 -5
000060 f2 81 81 62 81 7f 53 df 00 7f 7f b8 2c a1 0d c7
       -14 -127 -127 98 -127 127 83 -33 0 127 127 -72 44 -95 13 -57
000070 17 a0 3a fa 67 81 8d c5 89 90 cd 2b dd 7f 32 60
       23 -96 58 -6 103 -127 -115 -59 -119 -112 -51 43 -35 127 50 96
000080 a7 a6 4a ef 13 4d 09 a0 54 b4 14 01 7f 81 5b 81
       -89 -90 74 -17 19 77 9 -96 84 -76 20 1 127 -127 91 -127
000090 7f 81 87 7f 81 da 5d 81 40 ec 7f 1c 81 5e 7f 7f
       127 -127 -121 127 -127 -38 93 -127 64 -20 127 28 -127 94 127 127

tfl.pseudo_qconst23 i1 [32, 5, 1, 40]
000000 f8 11 30 27 2a 05 36 f8 00 b8 1f 00 4d cc f6 aa
       -8 17 48 39 42 5 54 -8 0 -72 31 0 77 -52 -10 -86
000010 01 50 dc e5 6d 15 52 fa f6 b1 d7 ae bb e6 07 f6
       1 80 -36 -27 109 21 82 -6 -10 -79 -41 -82 -69 -26 7 -10
000020 c9 c2 d4 fb b5 dc c0 d3 02 6b 10 1c 14 da 04 03
       -55 -62 -44 -5 -75 -36 -64 -45 2 107 16 28 20 -38 4 3
000030 e8 f1 21 19 dd bc cf eb 0d f5 bd d2 13 e1 20 03
       -24 -15 33 25 -35 -68 -49 -21 13 -11 -67 -46 19 -31 32 3
000040 32 b8 f8 85 b8 c1 df ed d3 c2 15 ea d6 fd 0f f6
       50 -72 -8 -123 -72 -63 -33 -19 -45 -62 21 -22 -42 -3 15 -10
000050 28 05 57 01 e4 93 d8 be 0f 3e 39 f2 f9 cb ef f6
       40 5 87 1 -28 -109 -40 -66 15 62 57 -14 -7 -53 -17 -10
000060 02 df 08 ee 4f d0 42 1a 30 b3 e0 bd ad e6 f3 e5
       2 -33 8 -18 79 -48 66 26 48 -77 -32 -67 -83 -26 -13 -27
000070 db fe 0c 43 00 1a 35 4f 00 f5 0b fe 0a af c3 eb
       -37 -2 12 67 0 26 53 79 0 -11 11 -2 10 -81 -61 -21
000080 e7 1a c3 bc 94 f2 0e dd fd ac e4 e3 2f e0 20 39
       -25 26 -61 -68 -108 -14 14 -35 -3 -84 -28 -29 47 -32 32 57
000090 33 ae bc e2 ff 1a 0e 29 08 37 1c 33 3f 4d 6c 1c
       51 -82 -68 -30 -1 26 14 41 8 55 28 51 63 77 108 28
0000a0 c0 ba f8 dd c2 b0 bb 07 fe e7 2d fb bd a4 81 e4
       -64 -70 -8 -35 -62 -80 -69 7 -2 -25 45 -5 -67 -92 -127 -28
0000b0 04 a9 c8 e5 3b 4c 10 63 2b c5 a3 2d 1d 08 45 62
       4 -87 -56 -27 59 76 16 99 43 -59 -93 45 29 8 69 98
0000c0 3e 73 55 5e 40 79 4e 63 eb d0 da eb c2 bf 1c fb
       62 115 85 94 64 121 78 99 -21 -48 -38 -21 -62 -65 28 -5
0000d0 e5 f4 13 12 2e 3c 2b fe 29 05 d5 9c ca a7 9d 08
       -27 -12 19 18 46 60 43 -2 41 5 -43 -100 -54 -89 -99 8
0000e0 d9 f6 e3 c6 bd 00 e1 ea ca e2 f9 e2 03 cd d3 d6
       -39 -10 -29 -58 -67 0 -31 -22 -54 -30 -7 -30 3 -51 -45 -42
0000f0 23 f2 da 25 e5 e3 f5 0f e1 e1 00 d8 26 02 07 20
       35 -14 -38 37 -27 -29 -11 15 -31 -31 0 -40 38 2 7 32

tfl.pseudo_qconst24 i1 [1, 14, 1, 64] scale=0.042196985 zero_point=-128
000000 80 80 80 80 80 80 80 80 80 80 80 80 80 80 80 80
       0.0 0.0 0.0 0.0 0.0 0.0 0.0 0.0 0.0 0.0 0.0 0.0 0.0 0.0 0.0 0.0
000010 80 80 80 80 80 80 80 80 80 80 80 80 80 80 80 80
       0.0 0.0 0.0 0.0 0.0 0.0 0.0 0.0 0.0 0.0 0.0 0.0 0.0 0.0 0.0 0.0
000020 80 80 80 80 80 80 80 80 80 80 80 80 80 80 80 80
       0.0 0.0 0.0 0.0 0.0 0.0 0.0 0.0 0.0 0.0 0.0 0.0 0.0 0.0 0.0 0.0
000030 80 80 80 80 80 80 80 80 80 80 80 80 80 80 80 80
       0.0 0.0 0.0 0.0 0.0 0.0 0.0 0.0 0.0 0.0 0.0 0.0 0.0 0.0 0.0 0.0
000040 80 80 80 80 80 80 80 80 80 80 80 80 80 80 80 80
       0.0 0.0 0.0 0.0 0.0 0.0 0.0 0.0 0.0 0.0 0.0 0.0 0.0 0.0 0.0 0.0
000050 80 80 80 80 80 80 80 80 80 80 80 80 80 80 80 80
       0.0 0.0 0.0 0.0 0.0 0.0 0.0 0.0 0.0 0.0 0.0 0.0 0.0 0.0 0.0 0.0
000060 80 80 80 80 80 80 80 80 80 80 80 80 80 80 80 80
       0.0 0.0 0.0 0.0 0.0 0.0 0.0 0.0 0.0 0.0 0.0 0.0 0.0 0.0 0.0 0.0
000070 80 80 80 80 80 80 80 80 80 80 80 80 80 80 80 80
       0.0 0.0 0.0 0.0 0.0 0.0 0.0 0.0 0.0 0.0 0.0 0.0 0.0 0.0 0.0 0.0
000080 80 80 80 80 80 80 80 80 80 80 80 80 80 80 80 80
       0.0 0.0 0.0 0.0 0.0 0.0 0.0 0.0 0.0 0.0 0.0 0.0 0.0 0.0 0.0 0.0
000090 80 80 80 80 80 80 80 80 80 80 80 80 80 80 80 80
       0.0 0.0 0.0 0.0 0.0 0.0 0.0 0.0 0.0 0.0 0.0 0.0 0.0 0.0 0.0 0.0
0000a0 80 80 80 80 80 80 80 80 80 80 80 80 80 80 80 80
       0.0 0.0 0.0 0.0 0.0 0.0 0.0 0.0 0.0 0.0 0.0 0.0 0.0 0.0 0.0 0.0
0000b0 80 80 80 80 80 80 80 80 80 80 80 80 80 80 80 80
       0.0 0.0 0.0 0.0 0.0 0.0 0.0 0.0 0.0 0.0 0.0 0.0 0.0 0.0 0.0 0.0
0000c0 80 80 80 80 80 80 80 80 80 80 80 80 80 80 80 80
       0.0 0.0 0.0 0.0 0.0 0.0 0.0 0.0 0.0 0.0 0.0 0.0 0.0 0.0 0.0 0.0
0000d0 80 80 80 80 80 80 80 80 80 80 80 80 80 80 80 80
       0.0 0.0 0.0 0.0 0.0 0.0 0.0 0.0 0.0 0.0 0.0 0.0 0.0 0.0 0.0 0.0
0000e0 80 80 80 80 80 80 80 80 80 80 80 80 80 80 80 80
       0.0 0.0 0.0 0.0 0.0 0.0 0.0 0.0 0.0 0.0 0.0 0.0 0.0 0.0 0.0 0.0
0000f0 80 80 80 80 80 80 80 80 80 80 80 80 80 80 80 80
       0.0 0.0 0.0 0.0 0.0 0.0 0.0 0.0 0.0 0.0 0.0 0.0 0.0 0.0 0.0 0.0

tfl.pseudo_qconst25 i1 [1, 10, 1, 64] scale=0.04346145 zero_point=-128
000000 80 80 80 80 80 80 80 80 80 80 80 80 80 80 80 80
       0.0 0.0 0.0 0.0 0.0 0.0 0.0 0.0 0.0 0.0 0.0 0.0 0.0 0.0 0.0 0.0
000010 80 80 80 80 80 80 80 80 80 80 80 80 80 80 80 80
       0.0 0.0 0.0 0.0 0.0 0.0 0.0 0.0 0.0 0.0 0.0 0.0 0.0 0.0 0.0 0.0
000020 80 80 80 80 80 80 80 80 80 80 80 80 80 80 80 80
       0.0 0.0 0.0 0.0 0.0 0.0 0.0 0.0 0.0 0.0 0.0 0.0 0.0 0.0 0.0 0.0
000030 80 80 80 80 80 80 80 80 80 80 80 80 80 80 80 80
       0.0 0.0 0.0 0.0 0.0 0.0 0.0 0.0 0.0 0.0 0.0 0.0 0.0 0.0 0.0 0.0
000040 80 80 80 80 80 80 80 80 80 80 80 80 80 80 80 80
       0.0 0.0 0.0 0.0 0.0 0.0 0.0 0.0 0.0 0.0 0.0 0.0 0.0 0.0 0.0 0.0
000050 80 80 80 80 80 80 80 80 80 80 80 80 80 80 80 80
       0.0 0.0 0.0 0.0 0.0 0.0 0.0 0.0 0.0 0.0 0.0 0.0 0.0 0.0 0.0 0.0
000060 80 80 80 80 80 80 80 80 80 80 80 80 80 80 80 80
       0.0 0.0 0.0 0.0 0.0 0.0 0.0 0.0 0.0 0.0 0.0 0.0 0.0 0.0 0.0 0.0
000070 80 80 80 80 80 80 80 80 80 80 80 80 80 80 80 80
       0.0 0.0 0.0 0.0 0.0 0.0 0.0 0.0 0.0 0.0 0.0 0.0 0.0 0.0 0.0 0.0
000080 80 80 80 80 80 80 80 80 80 80 80 80 80 80 80 80
       0.0 0.0 0.0 0.0 0.0 0.0 0.0 0.0 0.0 0.0 0.0 0.0 0.0 0.0 0.0 0.0
000090 80 80 80 80 80 80 80 80 80 80 80 80 80 80 80 80
       0.0 0.0 0.0 0.0 0.0 0.0 0.0 0.0 0.0 0.0 0.0 0.0 0.0 0.0 0.0 0.0
0000a0 80 80 80 80 80 80 80 80 80 80 80 80 80 80 80 80
       0.0 0.0 0.0 0.0 0.0 0.0 0.0 0.0 0.0 0.0 0.0 0.0 0.0 0.0 0.0 0.0
0000b0 80 80 80 80 80 80 80 80 80 80 80 80 80 80 80 80
       0.0 0.0 0.0 0.0 0.0 0.0 0.0 0.0 0.0 0.0 0.0 0.0 0.0 0.0 0.0 0.0
0000c0 80 80 80 80 80 80 80 80 80 80 80 80 80 80 80 80
       0.0 0.0 0.0 0.0 0.0 0.0 0.0 0.0 0.0 0.0 0.0 0.0 0.0 0.0 0.0 0.0
0000d0 80 80 80 80 80 80 80 80 80 80 80 80 80 80 80 80
       0.0 0.0 0.0 0.0 0.0 0.0 0.0 0.0 0.0 0.0 0.0 0.0 0.0 0.0 0.0 0.0
0000e0 80 80 80 80 80 80 80 80 80 80 80 80 80 80 80 80
       0.0 0.0 0.0 0.0 0.0 0.0 0.0 0.0 0.0 0.0 0.0 0.0 0.0 0.0 0.0 0.0
0000f0 80 80 80 80 80 80 80 80 80 80 80 80 80 80 80 80
       0.0 0.0 0.0 0.0 0.0 0.0 0.0 0.0 0.0 0.0 0.0 0.0 0.0 0.0 0.0 0.0

tfl.pseudo_qconst26 i1 [1, 4, 1, 32] scale=0.9626007 zero_point=-128
000000 80 80 80 80 80 80 80 80 80 80 80 80 80 80 80 80
       0.0 0.0 0.0 0.0 0.0 0.0 0.0 0.0 0.0 0.0 0.0 0.0 0.0 0.0 0.0 0.0
000010 80 80 80 80 80 80 80 80 80 80 80 80 80 80 80 80
       0.0 0.0 0.0 0.0 0.0 0.0 0.0 0.0 0.0 0.0 0.0 0.0 0.0 0.0 0.0 0.0
000020 80 80 80 80 80 80 80 80 80 80 80 80 80 80 80 80
       0.0 0.0 0.0 0.0 0.0 0.0 0.0 0.0 0.0 0.0 0.0 0.0 0.0 0.0 0.0 0.0
000030 80 80 80 80 80 80 80 80 80 80 80 80 80 80 80 80
       0.0 0.0 0.0 0.0 0.0 0.0 0.0 0.0 0.0 0.0 0.0 0.0 0.0 0.0 0.0 0.0
000040 80 80 80 80 80 80 80 80 80 80 80 80 80 80 80 80
       0.0 0.0 0.0 0.0 0.0 0.0 0.0 0.0 0.0 0.0 0.0 0.0 0.0 0.0 0.0 0.0
000050 80 80 80 80 80 80 80 80 80 80 80 80 80 80 80 80
       0.0 0.0 0.0 0.0 0.0 0.0 0.0 0.0 0.0 0.0 0.0 0.0 0.0 0.0 0.0 0.0
000060 80 80 80 80 80 80 80 80 80 80 80 80 80 80 80 80
       0.0 0.0 0.0 0.0 0.0 0.0 0.0 0.0 0.0 0.0 0.0 0.0 0.0 0.0 0.0 0.0
000070 80 80 80 80 80 80 80 80 80 80 80 80 80 80 80 80
       0.0 0.0 0.0 0.0 0.0 0.0 0.0 0.0 0.0 0.0 0.0 0.0 0.0 0.0 0.0 0.0

tfl.pseudo_qconst27 i1 [1, 3, 1, 40] scale=0.101960786 zero_point=-128
000000 80 80 80 80 80 80 80 80 80 80 80 80 80 80 80 80
       0.0 0.0 0.0 0.0 0.0 0.0 0.0 0.0 0.0 0.0 0.0 0.0 0.0 0.0 0.0 0.0
000010 80 80 80 80 80 80 80 80 80 80 80 80 80 80 80 80
       0.0 0.0 0.0 0.0 0.0 0.0 0.0 0.0 0.0 0.0 0.0 0.0 0.0 0.0 0.0 0.0
000020 80 80 80 80 80 80 80 80 80 80 80 80 80 80 80 80
       0.0 0.0 0.0 0.0 0.0 0.0 0.0 0.0 0.0 0.0 0.0 0.0 0.0 0.0 0.0 0.0
000030 80 80 80 80 80 80 80 80 80 80 80 80 80 80 80 80
       0.0 0.0 0.0 0.0 0.0 0.0 0.0 0.0 0.0 0.0 0.0 0.0 0.0 0.0 0.0 0.0
000040 80 80 80 80 80 80 80 80 80 80 80 80 80 80 80 80
       0.0 0.0 0.0 0.0 0.0 0.0 0.0 0.0 0.0 0.0 0.0 0.0 0.0 0.0 0.0 0.0
000050 80 80 80 80 80 80 80 80 80 80 80 80 80 80 80 80
       0.0 0.0 0.0 0.0 0.0 0.0 0.0 0.0 0.0 0.0 0.0 0.0 0.0 0.0 0.0 0.0
000060 80 80 80 80 80 80 80 80 80 80 80 80 80 80 80 80
       0.0 0.0 0.0 0.0 0.0 0.0 0.0 0.0 0.0 0.0 0.0 0.0 0.0 0.0 0.0 0.0
000070 80 80 80 80 80 80 80 80
       0.0 0.0 0.0 0.0 0.0 0.0 0.0 0.0

tfl.pseudo_qconst28 i1 [1, 36, 1, 64] scale=0.031837553 zero_point=-128
000000 80 80 80 80 80 80 80 80 80 80 80 80 80 80 80 80
       0.0 0.0 0.0 0.0 0.0 0.0 0.0 0.0 0.0 0.0 0.0 0.0 0.0 0.0 0.0 0.0
000010 80 80 80 80 80 80 80 80 80 80 80 80 80 80 80 80
       0.0 0.0 0.0 0.0 0.0 0.0 0.0 0.0 0.0 0.0 0.0 0.0 0.0 0.0 0.0 0.0
000020 80 80 80 80 80 80 80 80 80 80 80 80 80 80 80 80
       0.0 0.0 0.0 0.0 0.0 0.0 0.0 0.0 0.0 0.0 0.0 0.0 0.0 0.0 0.0 0.0
000030 80 80 80 80 80 80 80 80 80 80 80 80 80 80 80 80
       0.0 0.0 0.0 0.0 0.0 0.0 0.0 0.0 0.0 0.0 0.0 0.0 0.0 0.0 0.0 0.0
000040 80 80 80 80 80 80 80 80 80 80 80 80 80 80 80 80
       0.0 0.0 0.0 0.0 0.0 0.0 0.0 0.0 0.0 0.0 0.0 0.0 0.0 0.0 0.0 0.0
000050 80 80 80 80 80 80 80 80 80 80 80 80 80 80 80 80
       0.0 0.0 0.0 0.0 0.0 0.0 0.0 0.0 0.0 0.0 0.0 0.0 0.0 0.0 0.0 0.0
000060 80 80 80 80 80 80 80 80 80 80 80 80 80 80 80 80
       0.0 0.0 0.0 0.0 0.0 0.0 0.0 0.0 0.0 0.0 0.0 0.0 0.0 0.0 0.0 0.0
000070 80 80 80 80 80 80 80 80 80 80 80 80 80 80 80 80
       0.0 0.0 0.0 0.0 0.0 0.0 0.0 0.0 0.0 0.0 0.0 0.0 0.0 0.0 0.0 0.0
000080 80 80 80 80 80 80 80 80 80 80 80 80 80 80 80 80
       0.0 0.0 0.0 0.0 0.0 0.0 0.0 0.0 0.0 0.0 0.0 0.0 0.0 0.0 0.0 0.0
000090 80 80 80 80 80 80 80 80 80 80 80 80 80 80 80 80
       0.0 0.0 0.0 0.0 0.0 0.0 0.0 0.0 0.0 0.0 0.0 0.0 0.0 0.0 0.0 0.0
0000a0 80 80 80 80 80 80 80 80 80 80 80 80 80 80 80 80
       0.0 0.0 0.0 0.0 0.0 0.0 0.0 0.0 0.0 0.0 0.0 0.0 0.0 0.0 0.0 0.0
0000b0 80 80 80 80 80 80 80 80 80 80 80 80 80 80 80 80
       0.0 0.0 0.0 0.0 0.0 0.0 0.0 0.0 0.0 0.0 0.0 0.0 0.0 0.0 0.0 0.0
0000c0 80 80 80 80 80 80 80 80 80 80 80 80 80 80 80 80
       0.0 0.0 0.0 0.0 0.0 0.0 0.0 0.0 0.0 0.0 0.0 0.0 0.0 0.0 0.0 0.0
0000d0 80 80 80 80 80 80 80 80 80 80 80 80 80 80 80 80
       0.0 0.0 0.0 0.0 0.0 0.0 0.0 0.0 0.0 0.0 0.0 0.0 0.0 0.0 0.0 0.0
0000e0 80 80 80 80 80 80 80 80 80 80 80 80 80 80 80 80
       0.0 0.0 0.0 0.0 0.0 0.0 0.0 0.0 0.0 0.0 0.0 0.0 0.0 0.0 0.0 0.0
0000f0 80 80 80 80 80 80 80 80 80 80 80 80 80 80 80 80
       0.0 0.0 0.0 0.0 0.0 0.0 0.0 0.0 0.0 0.0 0.0 0.0 0.0 0.0 0.0 0.0

tfl.pseudo_qconst29 i1 [1, 22, 1, 64] scale=0.039837945 zero_point=-128
000000 80 80 80 80 80 80 80 80 80 80 80 80 80 80 80 80
       0.0 0.0 0.0 0.0 0.0 0.0 0.0 0.0 0.0 0.0 0.0 0.0 0.0 0.0 0.0 0.0
000010 80 80 80 80 80 80 80 80 80 80 80 80 80 80 80 80
       0.0 0.0 0.0 0.0 0.0 0.0 0.0 0.0 0.0 0.0 0.0 0.0 0.0 0.0 0.0 0.0
000020 80 80 80 80 80 80 80 80 80 80 80 80 80 80 80 80
       0.0 0.0 0.0 0.0 0.0 0.0 0.0 0.0 0.0 0.0 0.0 0.0 0.0 0.0 0.0 0.0
000030 80 80 80 80 80 80 80 80 80 80 80 80 80 80 80 80
       0.0 0.0 0.0 0.0 0.0 0.0 0.0 0.0 0.0 0.0 0.0 0.0 0.0 0.0 0.0 0.0
000040 80 80 80 80 80 80 80 80 80 80 80 80 80 80 80 80
       0.0 0.0 0.0 0.0 0.0 0.0 0.0 0.0 0.0 0.0 0.0 0.0 0.0 0.0 0.0 0.0
000050 80 80 80 80 80 80 80 80 80 80 80 80 80 80 80 80
       0.0 0.0 0.0 0.0 0.0 0.0 0.0 0.0 0.0 0.0 0.0 0.0 0.0 0.0 0.0 0.0
000060 80 80 80 80 80 80 80 80 80 80 80 80 80 80 80 80
       0.0 0.0 0.0 0.0 0.0 0.0 0.0 0.0 0.0 0.0 0.0 0.0 0.0 0.0 0.0 0.0
000070 80 80 80 80 80 80 80 80 80 80 80 80 80 80 80 80
       0.0 0.0 0.0 0.0 0.0 0.0 0.0 0.0 0.0 0.0 0.0 0.0 0.0 0.0 0.0 0.0
000080 80 80 80 80 80 80 80 80 80 80 80 80 80 80 80 80
       0.0 0.0 0.0 0.0 0.0 0.0 0.0 0.0 0.0 0.0 0.0 0.0 0.0 0.0 0.0 0.0
000090 80 80 80 80 80 80 80 80 80 80 80 80 80 80 80 80
       0.0 0.0 0.0 0.0 0.0 0.0 0.0 0.0 0.0 0.0 0.0 0.0 0.0 0.0 0.0 0.0
0000a0 80 80 80 80 80 80 80 80 80 80 80 80 80 80 80 80
       0.0 0.0 0.0 0.0 0.0 0.0 0.0 0.0 0.0 0.0 0.0 0.0 0.0 0.0 0.0 0.0
0000b0 80 80 80 80 80 80 80 80 80 80 80 80 80 80 80 80
       0.0 0.0 0.0 0.0 0.0 0.0 0.0 0.0 0.0 0.0 0.0 0.0 0.0 0.0 0.0 0.0
0000c0 80 80 80 80 80 80 80 80 80 80 80 80 80 80 80 80
       0.0 0.0 0.0 0.0 0.0 0.0 0.0 0.0 0.0 0.0 0.0 0.0 0.0 0.0 0.0 0.0
0000d0 80 80 80 80 80 80 80 80 80 80 80 80 80 80 80 80
       0.0 0.0 0.0 0.0 0.0 0.0 0.0 0.0 0.0 0.0 0.0 0.0 0.0 0.0 0.0 0.0
0000e0 80 80 80 80 80 80 80 80 80 80 80 80 80 80 80 80
       0.0 0.0 0.0 0.0 0.0 0.0 0.0 0.0 0.0 0.0 0.0 0.0 0.0 0.0 0.0 0.0
0000f0 80 80 80 80 80 80 80 80 80 80 80 80 80 80 80 80
       0.0 0.0 0.0 0.0 0.0 0.0 0.0 0.0 0.0 0.0 0.0 0.0 0.0 0.0 0.0 0.0
